…
ed_data_path='/home/daniel/exjobb/DatasetCondensation/result/res_DC_no_aug_office31_ConvNetdefault_1ipc.pt', no_aug='False', channel=3)
train_transform:  Compose(
    ResizeImage(size=(32, 32))
    RandomHorizontalFlip(p=0.5)
    ToTensor()
    Normalize(mean=(0.485, 0.456, 0.406), std=(0.229, 0.224, 0.225))
)
val_transform:  Compose(
    ResizeImage(size=(32, 32))
    ToTensor()
    Normalize(mean=(0.485, 0.456, 0.406), std=(0.229, 0.224, 0.225))
)
=> using model 'convnet'
convnet
lr: 0.001
torch.Size([2, 3, 32, 32])
ImageClassifier(
  (backbone): ConvNet(
    (features): Sequential(
      (0): Conv2d(3, 128, kernel_size=(3, 3), stride=(1, 1), padding=(1, 1))
      (1): GroupNorm(128, 128, eps=1e-05, affine=True)
      (2): ReLU(inplace=True)
      (3): AvgPool2d(kernel_size=2, stride=2, padding=0)
      (4): Conv2d(128, 128, kernel_size=(3, 3), stride=(1, 1), padding=(1, 1))
      (5): GroupNorm(128, 128, eps=1e-05, affine=True)
      (6): ReLU(inplace=True)
      (7): AvgPool2d(kernel_size=2, stride=2, padding=0)
      (8): Conv2d(128, 128, kernel_size=(3, 3), stride=(1, 1), padding=(1, 1))
      (9): GroupNorm(128, 128, eps=1e-05, affine=True)
      (10): ReLU(inplace=True)
      (11): AvgPool2d(kernel_size=2, stride=2, padding=0)
    )
    (classifier): Linear(in_features=128, out_features=31, bias=True)
  )
  (pool_layer): Sequential(
    (0): AdaptiveAvgPool2d(output_size=(1, 1))
    (1): Flatten(start_dim=1, end_dim=-1)
  )
  (bottleneck): Sequential(
    (0): Linear(in_features=128, out_features=256, bias=True)
    (1): BatchNorm1d(256, eps=1e-05, momentum=0.1, affine=True, track_running_stats=True)
    (2): ReLU()
  )
  (head): Linear(in_features=256, out_features=31, bias=True)
)
Epoch: [0][   0/1000]	Time  0.05 ( 0.05)	Data  0.00 ( 0.00)	Loss   4.07 (  4.07)	Cls Acc 0.0 (0.0)	Domain Acc 50.0 (50.0)
torch.Size([2, 3, 32, 32])
ImageClassifier(
  (backbone): ConvNet(
    (features): Sequential(
      (0): Conv2d(3, 128, kernel_size=(3, 3), stride=(1, 1), padding=(1, 1))
      (1): GroupNorm(128, 128, eps=1e-05, affine=True)
      (2): ReLU(inplace=True)
      (3): AvgPool2d(kernel_size=2, stride=2, padding=0)
      (4): Conv2d(128, 128, kernel_size=(3, 3), stride=(1, 1), padding=(1, 1))
      (5): GroupNorm(128, 128, eps=1e-05, affine=True)
      (6): ReLU(inplace=True)
      (7): AvgPool2d(kernel_size=2, stride=2, padding=0)
      (8): Conv2d(128, 128, kernel_size=(3, 3), stride=(1, 1), padding=(1, 1))
      (9): GroupNorm(128, 128, eps=1e-05, affine=True)
      (10): ReLU(inplace=True)
      (11): AvgPool2d(kernel_size=2, stride=2, padding=0)
    )
    (classifier): Linear(in_features=128, out_features=31, bias=True)
  )
  (pool_layer): Sequential(
    (0): AdaptiveAvgPool2d(output_size=(1, 1))
    (1): Flatten(start_dim=1, end_dim=-1)
  )
  (bottleneck): Sequential(
    (0): Linear(in_features=128, out_features=256, bias=True)
    (1): BatchNorm1d(256, eps=1e-05, momentum=0.1, affine=True, track_running_stats=True)
    (2): ReLU()
  )
  (head): Linear(in_features=256, out_features=31, bias=True)
)
torch.Size([2, 3, 32, 32])
ImageClassifier(
  (backbone): ConvNet(
    (features): Sequential(
      (0): Conv2d(3, 128, kernel_size=(3, 3), stride=(1, 1), padding=(1, 1))
      (1): GroupNorm(128, 128, eps=1e-05, affine=True)
      (2): ReLU(inplace=True)
      (3): AvgPool2d(kernel_size=2, stride=2, padding=0)
      (4): Conv2d(128, 128, kernel_size=(3, 3), stride=(1, 1), padding=(1, 1))
      (5): GroupNorm(128, 128, eps=1e-05, affine=True)
      (6): ReLU(inplace=True)
      (7): AvgPool2d(kernel_size=2, stride=2, padding=0)
      (8): Conv2d(128, 128, kernel_size=(3, 3), stride=(1, 1), padding=(1, 1))
      (9): GroupNorm(128, 128, eps=1e-05, affine=True)
      (10): ReLU(inplace=True)
      (11): AvgPool2d(kernel_size=2, stride=2, padding=0)
    )
    (classifier): Linear(in_features=128, out_features=31, bias=True)
  )
  (pool_layer): Sequential(
    (0): AdaptiveAvgPool2d(output_size=(1, 1))
    (1): Flatten(start_dim=1, end_dim=-1)
  )
  (bottleneck): Sequential(
    (0): Linear(in_features=128, out_features=256, bias=True)
    (1): BatchNorm1d(256, eps=1e-05, momentum=0.1, affine=True, track_running_stats=True)
    (2): ReLU()
  )
  (head): Linear(in_features=256, out_features=31, bias=True)
)
torch.Size([2, 3, 32, 32])
ImageClassifier(
  (backbone): ConvNet(
    (features): Sequential(
      (0): Conv2d(3, 128, kernel_size=(3, 3), stride=(1, 1), padding=(1, 1))
      (1): GroupNorm(128, 128, eps=1e-05, affine=True)
      (2): ReLU(inplace=True)
      (3): AvgPool2d(kernel_size=2, stride=2, padding=0)
      (4): Conv2d(128, 128, kernel_size=(3, 3), stride=(1, 1), padding=(1, 1))
      (5): GroupNorm(128, 128, eps=1e-05, affine=True)
      (6): ReLU(inplace=True)
      (7): AvgPool2d(kernel_size=2, stride=2, padding=0)
      (8): Conv2d(128, 128, kernel_size=(3, 3), stride=(1, 1), padding=(1, 1))
      (9): GroupNorm(128, 128, eps=1e-05, affine=True)
      (10): ReLU(inplace=True)
      (11): AvgPool2d(kernel_size=2, stride=2, padding=0)
    )
    (classifier): Linear(in_features=128, out_features=31, bias=True)
  )
  (pool_layer): Sequential(
    (0): AdaptiveAvgPool2d(output_size=(1, 1))
    (1): Flatten(start_dim=1, end_dim=-1)
  )
  (bottleneck): Sequential(
    (0): Linear(in_features=128, out_features=256, bias=True)
    (1): BatchNorm1d(256, eps=1e-05, momentum=0.1, affine=True, track_running_stats=True)
    (2): ReLU()
  )
  (head): Linear(in_features=256, out_features=31, bias=True)
)
torch.Size([2, 3, 32, 32])
ImageClassifier(
  (backbone): ConvNet(
    (features): Sequential(
      (0): Conv2d(3, 128, kernel_size=(3, 3), stride=(1, 1), padding=(1, 1))
      (1): GroupNorm(128, 128, eps=1e-05, affine=True)
      (2): ReLU(inplace=True)
      (3): AvgPool2d(kernel_size=2, stride=2, padding=0)
      (4): Conv2d(128, 128, kernel_size=(3, 3), stride=(1, 1), padding=(1, 1))
      (5): GroupNorm(128, 128, eps=1e-05, affine=True)
      (6): ReLU(inplace=True)
      (7): AvgPool2d(kernel_size=2, stride=2, padding=0)
      (8): Conv2d(128, 128, kernel_size=(3, 3), stride=(1, 1), padding=(1, 1))
      (9): GroupNorm(128, 128, eps=1e-05, affine=True)
      (10): ReLU(inplace=True)
      (11): AvgPool2d(kernel_size=2, stride=2, padding=0)
    )
    (classifier): Linear(in_features=128, out_features=31, bias=True)
  )
  (pool_layer): Sequential(
    (0): AdaptiveAvgPool2d(output_size=(1, 1))
    (1): Flatten(start_dim=1, end_dim=-1)
  )
  (bottleneck): Sequential(
    (0): Linear(in_features=128, out_features=256, bias=True)
    (1): BatchNorm1d(256, eps=1e-05, momentum=0.1, affine=True, track_running_stats=True)
    (2): ReLU()
  )
  (head): Linear(in_features=256, out_features=31, bias=True)
)
torch.Size([2, 3, 32, 32])
ImageClassifier(
  (backbone): ConvNet(
    (features): Sequential(
      (0): Conv2d(3, 128, kernel_size=(3, 3), stride=(1, 1), padding=(1, 1))
      (1): GroupNorm(128, 128, eps=1e-05, affine=True)
      (2): ReLU(inplace=True)
      (3): AvgPool2d(kernel_size=2, stride=2, padding=0)
      (4): Conv2d(128, 128, kernel_size=(3, 3), stride=(1, 1), padding=(1, 1))
      (5): GroupNorm(128, 128, eps=1e-05, affine=True)
      (6): ReLU(inplace=True)
      (7): AvgPool2d(kernel_size=2, stride=2, padding=0)
      (8): Conv2d(128, 128, kernel_size=(3, 3), stride=(1, 1), padding=(1, 1))
      (9): GroupNorm(128, 128, eps=1e-05, affine=True)
      (10): ReLU(inplace=True)
      (11): AvgPool2d(kernel_size=2, stride=2, padding=0)
    )
    (classifier): Linear(in_features=128, out_features=31, bias=True)
  )
  (pool_layer): Sequential(
    (0): AdaptiveAvgPool2d(output_size=(1, 1))
    (1): Flatten(start_dim=1, end_dim=-1)
  )
  (bottleneck): Sequential(
    (0): Linear(in_features=128, out_features=256, bias=True)
    (1): BatchNorm1d(256, eps=1e-05, momentum=0.1, affine=True, track_running_stats=True)
    (2): ReLU()
  )
  (head): Linear(in_features=256, out_features=31, bias=True)
)
torch.Size([2, 3, 32, 32])
ImageClassifier(
  (backbone): ConvNet(
    (features): Sequential(
      (0): Conv2d(3, 128, kernel_size=(3, 3), stride=(1, 1), padding=(1, 1))
      (1): GroupNorm(128, 128, eps=1e-05, affine=True)
      (2): ReLU(inplace=True)
      (3): AvgPool2d(kernel_size=2, stride=2, padding=0)
      (4): Conv2d(128, 128, kernel_size=(3, 3), stride=(1, 1), padding=(1, 1))
      (5): GroupNorm(128, 128, eps=1e-05, affine=True)
      (6): ReLU(inplace=True)
      (7): AvgPool2d(kernel_size=2, stride=2, padding=0)
      (8): Conv2d(128, 128, kernel_size=(3, 3), stride=(1, 1), padding=(1, 1))
      (9): GroupNorm(128, 128, eps=1e-05, affine=True)
      (10): ReLU(inplace=True)
      (11): AvgPool2d(kernel_size=2, stride=2, padding=0)
    )
    (classifier): Linear(in_features=128, out_features=31, bias=True)
  )
  (pool_layer): Sequential(
    (0): AdaptiveAvgPool2d(output_size=(1, 1))
    (1): Flatten(start_dim=1, end_dim=-1)
  )
  (bottleneck): Sequential(
    (0): Linear(in_features=128, out_features=256, bias=True)
    (1): BatchNorm1d(256, eps=1e-05, momentum=0.1, affine=True, track_running_stats=True)
    (2): ReLU()
  )
  (head): Linear(in_features=256, out_features=31, bias=True)
)
torch.Size([2, 3, 32, 32])
ImageClassifier(
  (backbone): ConvNet(
    (features): Sequential(
      (0): Conv2d(3, 128, kernel_size=(3, 3), stride=(1, 1), padding=(1, 1))
      (1): GroupNorm(128, 128, eps=1e-05, affine=True)
      (2): ReLU(inplace=True)
      (3): AvgPool2d(kernel_size=2, stride=2, padding=0)
      (4): Conv2d(128, 128, kernel_size=(3, 3), stride=(1, 1), padding=(1, 1))
      (5): GroupNorm(128, 128, eps=1e-05, affine=True)
      (6): ReLU(inplace=True)
      (7): AvgPool2d(kernel_size=2, stride=2, padding=0)
      (8): Conv2d(128, 128, kernel_size=(3, 3), stride=(1, 1), padding=(1, 1))
      (9): GroupNorm(128, 128, eps=1e-05, affine=True)
      (10): ReLU(inplace=True)
      (11): AvgPool2d(kernel_size=2, stride=2, padding=0)
    )
    (classifier): Linear(in_features=128, out_features=31, bias=True)
  )
  (pool_layer): Sequential(
    (0): AdaptiveAvgPool2d(output_size=(1, 1))
    (1): Flatten(start_dim=1, end_dim=-1)
  )
  (bottleneck): Sequential(
    (0): Linear(in_features=128, out_features=256, bias=True)
    (1): BatchNorm1d(256, eps=1e-05, momentum=0.1, affine=True, track_running_stats=True)
    (2): ReLU()
  )
  (head): Linear(in_features=256, out_features=31, bias=True)
)
torch.Size([2, 3, 32, 32])
ImageClassifier(
  (backbone): ConvNet(
    (features): Sequential(
      (0): Conv2d(3, 128, kernel_size=(3, 3), stride=(1, 1), padding=(1, 1))
      (1): GroupNorm(128, 128, eps=1e-05, affine=True)
      (2): ReLU(inplace=True)
      (3): AvgPool2d(kernel_size=2, stride=2, padding=0)
      (4): Conv2d(128, 128, kernel_size=(3, 3), stride=(1, 1), padding=(1, 1))
      (5): GroupNorm(128, 128, eps=1e-05, affine=True)
      (6): ReLU(inplace=True)
      (7): AvgPool2d(kernel_size=2, stride=2, padding=0)
      (8): Conv2d(128, 128, kernel_size=(3, 3), stride=(1, 1), padding=(1, 1))
      (9): GroupNorm(128, 128, eps=1e-05, affine=True)
      (10): ReLU(inplace=True)
      (11): AvgPool2d(kernel_size=2, stride=2, padding=0)
    )
    (classifier): Linear(in_features=128, out_features=31, bias=True)
  )
  (pool_layer): Sequential(
    (0): AdaptiveAvgPool2d(output_size=(1, 1))
    (1): Flatten(start_dim=1, end_dim=-1)
  )
  (bottleneck): Sequential(
    (0): Linear(in_features=128, out_features=256, bias=True)
    (1): BatchNorm1d(256, eps=1e-05, momentum=0.1, affine=True, track_running_stats=True)
    (2): ReLU()
  )
  (head): Linear(in_features=256, out_features=31, bias=True)
)
torch.Size([2, 3, 32, 32])
ImageClassifier(
  (backbone): ConvNet(
    (features): Sequential(
      (0): Conv2d(3, 128, kernel_size=(3, 3), stride=(1, 1), padding=(1, 1))
      (1): GroupNorm(128, 128, eps=1e-05, affine=True)
      (2): ReLU(inplace=True)
      (3): AvgPool2d(kernel_size=2, stride=2, padding=0)
      (4): Conv2d(128, 128, kernel_size=(3, 3), stride=(1, 1), padding=(1, 1))
      (5): GroupNorm(128, 128, eps=1e-05, affine=True)
      (6): ReLU(inplace=True)
      (7): AvgPool2d(kernel_size=2, stride=2, padding=0)
      (8): Conv2d(128, 128, kernel_size=(3, 3), stride=(1, 1), padding=(1, 1))
      (9): GroupNorm(128, 128, eps=1e-05, affine=True)
      (10): ReLU(inplace=True)
      (11): AvgPool2d(kernel_size=2, stride=2, padding=0)
    )
    (classifier): Linear(in_features=128, out_features=31, bias=True)
  )
  (pool_layer): Sequential(
    (0): AdaptiveAvgPool2d(output_size=(1, 1))
    (1): Flatten(start_dim=1, end_dim=-1)
  )
  (bottleneck): Sequential(
    (0): Linear(in_features=128, out_features=256, bias=True)
    (1): BatchNorm1d(256, eps=1e-05, momentum=0.1, affine=True, track_running_stats=True)
    (2): ReLU()
  )
  (head): Linear(in_features=256, out_features=31, bias=True)
)
torch.Size([2, 3, 32, 32])
ImageClassifier(
  (backbone): ConvNet(
    (features): Sequential(
      (0): Conv2d(3, 128, kernel_size=(3, 3), stride=(1, 1), padding=(1, 1))
      (1): GroupNorm(128, 128, eps=1e-05, affine=True)
      (2): ReLU(inplace=True)
      (3): AvgPool2d(kernel_size=2, stride=2, padding=0)
      (4): Conv2d(128, 128, kernel_size=(3, 3), stride=(1, 1), padding=(1, 1))
      (5): GroupNorm(128, 128, eps=1e-05, affine=True)
      (6): ReLU(inplace=True)
      (7): AvgPool2d(kernel_size=2, stride=2, padding=0)
      (8): Conv2d(128, 128, kernel_size=(3, 3), stride=(1, 1), padding=(1, 1))
      (9): GroupNorm(128, 128, eps=1e-05, affine=True)
      (10): ReLU(inplace=True)
      (11): AvgPool2d(kernel_size=2, stride=2, padding=0)
    )
    (classifier): Linear(in_features=128, out_features=31, bias=True)
  )
  (pool_layer): Sequential(
    (0): AdaptiveAvgPool2d(output_size=(1, 1))
    (1): Flatten(start_dim=1, end_dim=-1)
  )
  (bottleneck): Sequential(
    (0): Linear(in_features=128, out_features=256, bias=True)
    (1): BatchNorm1d(256, eps=1e-05, momentum=0.1, affine=True, track_running_stats=True)
    (2): ReLU()
  )
  (head): Linear(in_features=256, out_features=31, bias=True)
)
torch.Size([2, 3, 32, 32])
ImageClassifier(
  (backbone): ConvNet(
    (features): Sequential(
      (0): Conv2d(3, 128, kernel_size=(3, 3), stride=(1, 1), padding=(1, 1))
      (1): GroupNorm(128, 128, eps=1e-05, affine=True)
      (2): ReLU(inplace=True)
      (3): AvgPool2d(kernel_size=2, stride=2, padding=0)
      (4): Conv2d(128, 128, kernel_size=(3, 3), stride=(1, 1), padding=(1, 1))
      (5): GroupNorm(128, 128, eps=1e-05, affine=True)
      (6): ReLU(inplace=True)
      (7): AvgPool2d(kernel_size=2, stride=2, padding=0)
      (8): Conv2d(128, 128, kernel_size=(3, 3), stride=(1, 1), padding=(1, 1))
      (9): GroupNorm(128, 128, eps=1e-05, affine=True)
      (10): ReLU(inplace=True)
      (11): AvgPool2d(kernel_size=2, stride=2, padding=0)
    )
    (classifier): Linear(in_features=128, out_features=31, bias=True)
  )
  (pool_layer): Sequential(
    (0): AdaptiveAvgPool2d(output_size=(1, 1))
    (1): Flatten(start_dim=1, end_dim=-1)
  )
  (bottleneck): Sequential(
    (0): Linear(in_features=128, out_features=256, bias=True)
    (1): BatchNorm1d(256, eps=1e-05, momentum=0.1, affine=True, track_running_stats=True)
    (2): ReLU()
  )
  (head): Linear(in_features=256, out_features=31, bias=True)
)
torch.Size([2, 3, 32, 32])
ImageClassifier(
  (backbone): ConvNet(
    (features): Sequential(
      (0): Conv2d(3, 128, kernel_size=(3, 3), stride=(1, 1), padding=(1, 1))
      (1): GroupNorm(128, 128, eps=1e-05, affine=True)
      (2): ReLU(inplace=True)
      (3): AvgPool2d(kernel_size=2, stride=2, padding=0)
      (4): Conv2d(128, 128, kernel_size=(3, 3), stride=(1, 1), padding=(1, 1))
      (5): GroupNorm(128, 128, eps=1e-05, affine=True)
      (6): ReLU(inplace=True)
      (7): AvgPool2d(kernel_size=2, stride=2, padding=0)
      (8): Conv2d(128, 128, kernel_size=(3, 3), stride=(1, 1), padding=(1, 1))
      (9): GroupNorm(128, 128, eps=1e-05, affine=True)
      (10): ReLU(inplace=True)
      (11): AvgPool2d(kernel_size=2, stride=2, padding=0)
    )
    (classifier): Linear(in_features=128, out_features=31, bias=True)
  )
  (pool_layer): Sequential(
    (0): AdaptiveAvgPool2d(output_size=(1, 1))
    (1): Flatten(start_dim=1, end_dim=-1)
  )
  (bottleneck): Sequential(
    (0): Linear(in_features=128, out_features=256, bias=True)
    (1): BatchNorm1d(256, eps=1e-05, momentum=0.1, affine=True, track_running_stats=True)
    (2): ReLU()
  )
  (head): Linear(in_features=256, out_features=31, bias=True)
)
torch.Size([2, 3, 32, 32])
ImageClassifier(
  (backbone): ConvNet(
    (features): Sequential(
      (0): Conv2d(3, 128, kernel_size=(3, 3), stride=(1, 1), padding=(1, 1))
      (1): GroupNorm(128, 128, eps=1e-05, affine=True)
      (2): ReLU(inplace=True)
      (3): AvgPool2d(kernel_size=2, stride=2, padding=0)
      (4): Conv2d(128, 128, kernel_size=(3, 3), stride=(1, 1), padding=(1, 1))
      (5): GroupNorm(128, 128, eps=1e-05, affine=True)
      (6): ReLU(inplace=True)
      (7): AvgPool2d(kernel_size=2, stride=2, padding=0)
      (8): Conv2d(128, 128, kernel_size=(3, 3), stride=(1, 1), padding=(1, 1))
      (9): GroupNorm(128, 128, eps=1e-05, affine=True)
      (10): ReLU(inplace=True)
      (11): AvgPool2d(kernel_size=2, stride=2, padding=0)
    )
    (classifier): Linear(in_features=128, out_features=31, bias=True)
  )
  (pool_layer): Sequential(
    (0): AdaptiveAvgPool2d(output_size=(1, 1))
    (1): Flatten(start_dim=1, end_dim=-1)
  )
  (bottleneck): Sequential(
    (0): Linear(in_features=128, out_features=256, bias=True)
    (1): BatchNorm1d(256, eps=1e-05, momentum=0.1, affine=True, track_running_stats=True)
    (2): ReLU()
  )
  (head): Linear(in_features=256, out_features=31, bias=True)
)
torch.Size([2, 3, 32, 32])
ImageClassifier(
  (backbone): ConvNet(
    (features): Sequential(
      (0): Conv2d(3, 128, kernel_size=(3, 3), stride=(1, 1), padding=(1, 1))
      (1): GroupNorm(128, 128, eps=1e-05, affine=True)
      (2): ReLU(inplace=True)
      (3): AvgPool2d(kernel_size=2, stride=2, padding=0)
      (4): Conv2d(128, 128, kernel_size=(3, 3), stride=(1, 1), padding=(1, 1))
      (5): GroupNorm(128, 128, eps=1e-05, affine=True)
      (6): ReLU(inplace=True)
      (7): AvgPool2d(kernel_size=2, stride=2, padding=0)
      (8): Conv2d(128, 128, kernel_size=(3, 3), stride=(1, 1), padding=(1, 1))
      (9): GroupNorm(128, 128, eps=1e-05, affine=True)
      (10): ReLU(inplace=True)
      (11): AvgPool2d(kernel_size=2, stride=2, padding=0)
    )
    (classifier): Linear(in_features=128, out_features=31, bias=True)
  )
  (pool_layer): Sequential(
    (0): AdaptiveAvgPool2d(output_size=(1, 1))
    (1): Flatten(start_dim=1, end_dim=-1)
  )
  (bottleneck): Sequential(
    (0): Linear(in_features=128, out_features=256, bias=True)
    (1): BatchNorm1d(256, eps=1e-05, momentum=0.1, affine=True, track_running_stats=True)
    (2): ReLU()
  )
  (head): Linear(in_features=256, out_features=31, bias=True)
)
torch.Size([2, 3, 32, 32])
ImageClassifier(
  (backbone): ConvNet(
    (features): Sequential(
      (0): Conv2d(3, 128, kernel_size=(3, 3), stride=(1, 1), padding=(1, 1))
      (1): GroupNorm(128, 128, eps=1e-05, affine=True)
      (2): ReLU(inplace=True)
      (3): AvgPool2d(kernel_size=2, stride=2, padding=0)
      (4): Conv2d(128, 128, kernel_size=(3, 3), stride=(1, 1), padding=(1, 1))
      (5): GroupNorm(128, 128, eps=1e-05, affine=True)
      (6): ReLU(inplace=True)
      (7): AvgPool2d(kernel_size=2, stride=2, padding=0)
      (8): Conv2d(128, 128, kernel_size=(3, 3), stride=(1, 1), padding=(1, 1))
      (9): GroupNorm(128, 128, eps=1e-05, affine=True)
      (10): ReLU(inplace=True)
      (11): AvgPool2d(kernel_size=2, stride=2, padding=0)
    )
    (classifier): Linear(in_features=128, out_features=31, bias=True)
  )
  (pool_layer): Sequential(
    (0): AdaptiveAvgPool2d(output_size=(1, 1))
    (1): Flatten(start_dim=1, end_dim=-1)
  )
  (bottleneck): Sequential(
    (0): Linear(in_features=128, out_features=256, bias=True)
    (1): BatchNorm1d(256, eps=1e-05, momentum=0.1, affine=True, track_running_stats=True)
    (2): ReLU()
  )
  (head): Linear(in_features=256, out_features=31, bias=True)
)
torch.Size([2, 3, 32, 32])
ImageClassifier(
  (backbone): ConvNet(
    (features): Sequential(
      (0): Conv2d(3, 128, kernel_size=(3, 3), stride=(1, 1), padding=(1, 1))
      (1): GroupNorm(128, 128, eps=1e-05, affine=True)
      (2): ReLU(inplace=True)
      (3): AvgPool2d(kernel_size=2, stride=2, padding=0)
      (4): Conv2d(128, 128, kernel_size=(3, 3), stride=(1, 1), padding=(1, 1))
      (5): GroupNorm(128, 128, eps=1e-05, affine=True)
      (6): ReLU(inplace=True)
      (7): AvgPool2d(kernel_size=2, stride=2, padding=0)
      (8): Conv2d(128, 128, kernel_size=(3, 3), stride=(1, 1), padding=(1, 1))
      (9): GroupNorm(128, 128, eps=1e-05, affine=True)
      (10): ReLU(inplace=True)
      (11): AvgPool2d(kernel_size=2, stride=2, padding=0)
    )
    (classifier): Linear(in_features=128, out_features=31, bias=True)
  )
  (pool_layer): Sequential(
    (0): AdaptiveAvgPool2d(output_size=(1, 1))
    (1): Flatten(start_dim=1, end_dim=-1)
  )
  (bottleneck): Sequential(
    (0): Linear(in_features=128, out_features=256, bias=True)
    (1): BatchNorm1d(256, eps=1e-05, momentum=0.1, affine=True, track_running_stats=True)
    (2): ReLU()
  )
  (head): Linear(in_features=256, out_features=31, bias=True)
)
torch.Size([2, 3, 32, 32])
ImageClassifier(
  (backbone): ConvNet(
    (features): Sequential(
      (0): Conv2d(3, 128, kernel_size=(3, 3), stride=(1, 1), padding=(1, 1))
      (1): GroupNorm(128, 128, eps=1e-05, affine=True)
      (2): ReLU(inplace=True)
      (3): AvgPool2d(kernel_size=2, stride=2, padding=0)
      (4): Conv2d(128, 128, kernel_size=(3, 3), stride=(1, 1), padding=(1, 1))
      (5): GroupNorm(128, 128, eps=1e-05, affine=True)
      (6): ReLU(inplace=True)
      (7): AvgPool2d(kernel_size=2, stride=2, padding=0)
      (8): Conv2d(128, 128, kernel_size=(3, 3), stride=(1, 1), padding=(1, 1))
      (9): GroupNorm(128, 128, eps=1e-05, affine=True)
      (10): ReLU(inplace=True)
      (11): AvgPool2d(kernel_size=2, stride=2, padding=0)
    )
    (classifier): Linear(in_features=128, out_features=31, bias=True)
  )
  (pool_layer): Sequential(
    (0): AdaptiveAvgPool2d(output_size=(1, 1))
    (1): Flatten(start_dim=1, end_dim=-1)
  )
  (bottleneck): Sequential(
    (0): Linear(in_features=128, out_features=256, bias=True)
    (1): BatchNorm1d(256, eps=1e-05, momentum=0.1, affine=True, track_running_stats=True)
    (2): ReLU()
  )
  (head): Linear(in_features=256, out_features=31, bias=True)
)
torch.Size([2, 3, 32, 32])
ImageClassifier(
  (backbone): ConvNet(
    (features): Sequential(
      (0): Conv2d(3, 128, kernel_size=(3, 3), stride=(1, 1), padding=(1, 1))
      (1): GroupNorm(128, 128, eps=1e-05, affine=True)
      (2): ReLU(inplace=True)
      (3): AvgPool2d(kernel_size=2, stride=2, padding=0)
      (4): Conv2d(128, 128, kernel_size=(3, 3), stride=(1, 1), padding=(1, 1))
      (5): GroupNorm(128, 128, eps=1e-05, affine=True)
      (6): ReLU(inplace=True)
      (7): AvgPool2d(kernel_size=2, stride=2, padding=0)
      (8): Conv2d(128, 128, kernel_size=(3, 3), stride=(1, 1), padding=(1, 1))
      (9): GroupNorm(128, 128, eps=1e-05, affine=True)
      (10): ReLU(inplace=True)
      (11): AvgPool2d(kernel_size=2, stride=2, padding=0)
    )
    (classifier): Linear(in_features=128, out_features=31, bias=True)
  )
  (pool_layer): Sequential(
    (0): AdaptiveAvgPool2d(output_size=(1, 1))
    (1): Flatten(start_dim=1, end_dim=-1)
  )
  (bottleneck): Sequential(
    (0): Linear(in_features=128, out_features=256, bias=True)
    (1): BatchNorm1d(256, eps=1e-05, momentum=0.1, affine=True, track_running_stats=True)
    (2): ReLU()
  )
  (head): Linear(in_features=256, out_features=31, bias=True)
)
torch.Size([2, 3, 32, 32])
ImageClassifier(
  (backbone): ConvNet(
    (features): Sequential(
      (0): Conv2d(3, 128, kernel_size=(3, 3), stride=(1, 1), padding=(1, 1))
      (1): GroupNorm(128, 128, eps=1e-05, affine=True)
      (2): ReLU(inplace=True)
      (3): AvgPool2d(kernel_size=2, stride=2, padding=0)
      (4): Conv2d(128, 128, kernel_size=(3, 3), stride=(1, 1), padding=(1, 1))
      (5): GroupNorm(128, 128, eps=1e-05, affine=True)
      (6): ReLU(inplace=True)
      (7): AvgPool2d(kernel_size=2, stride=2, padding=0)
      (8): Conv2d(128, 128, kernel_size=(3, 3), stride=(1, 1), padding=(1, 1))
      (9): GroupNorm(128, 128, eps=1e-05, affine=True)
      (10): ReLU(inplace=True)
      (11): AvgPool2d(kernel_size=2, stride=2, padding=0)
    )
    (classifier): Linear(in_features=128, out_features=31, bias=True)
  )
  (pool_layer): Sequential(
    (0): AdaptiveAvgPool2d(output_size=(1, 1))
    (1): Flatten(start_dim=1, end_dim=-1)
  )
  (bottleneck): Sequential(
    (0): Linear(in_features=128, out_features=256, bias=True)
    (1): BatchNorm1d(256, eps=1e-05, momentum=0.1, affine=True, track_running_stats=True)
    (2): ReLU()
  )
  (head): Linear(in_features=256, out_features=31, bias=True)
)
torch.Size([2, 3, 32, 32])
ImageClassifier(
  (backbone): ConvNet(
    (features): Sequential(
      (0): Conv2d(3, 128, kernel_size=(3, 3), stride=(1, 1), padding=(1, 1))
      (1): GroupNorm(128, 128, eps=1e-05, affine=True)
      (2): ReLU(inplace=True)
      (3): AvgPool2d(kernel_size=2, stride=2, padding=0)
      (4): Conv2d(128, 128, kernel_size=(3, 3), stride=(1, 1), padding=(1, 1))
      (5): GroupNorm(128, 128, eps=1e-05, affine=True)
      (6): ReLU(inplace=True)
      (7): AvgPool2d(kernel_size=2, stride=2, padding=0)
      (8): Conv2d(128, 128, kernel_size=(3, 3), stride=(1, 1), padding=(1, 1))
      (9): GroupNorm(128, 128, eps=1e-05, affine=True)
      (10): ReLU(inplace=True)
      (11): AvgPool2d(kernel_size=2, stride=2, padding=0)
    )
    (classifier): Linear(in_features=128, out_features=31, bias=True)
  )
  (pool_layer): Sequential(
    (0): AdaptiveAvgPool2d(output_size=(1, 1))
    (1): Flatten(start_dim=1, end_dim=-1)
  )
  (bottleneck): Sequential(
    (0): Linear(in_features=128, out_features=256, bias=True)
    (1): BatchNorm1d(256, eps=1e-05, momentum=0.1, affine=True, track_running_stats=True)
    (2): ReLU()
  )
  (head): Linear(in_features=256, out_features=31, bias=True)
)
torch.Size([2, 3, 32, 32])
ImageClassifier(
  (backbone): ConvNet(
    (features): Sequential(
      (0): Conv2d(3, 128, kernel_size=(3, 3), stride=(1, 1), padding=(1, 1))
      (1): GroupNorm(128, 128, eps=1e-05, affine=True)
      (2): ReLU(inplace=True)
      (3): AvgPool2d(kernel_size=2, stride=2, padding=0)
      (4): Conv2d(128, 128, kernel_size=(3, 3), stride=(1, 1), padding=(1, 1))
      (5): GroupNorm(128, 128, eps=1e-05, affine=True)
      (6): ReLU(inplace=True)
      (7): AvgPool2d(kernel_size=2, stride=2, padding=0)
      (8): Conv2d(128, 128, kernel_size=(3, 3), stride=(1, 1), padding=(1, 1))
      (9): GroupNorm(128, 128, eps=1e-05, affine=True)
      (10): ReLU(inplace=True)
      (11): AvgPool2d(kernel_size=2, stride=2, padding=0)
    )
    (classifier): Linear(in_features=128, out_features=31, bias=True)
  )
  (pool_layer): Sequential(
    (0): AdaptiveAvgPool2d(output_size=(1, 1))
    (1): Flatten(start_dim=1, end_dim=-1)
  )
  (bottleneck): Sequential(
    (0): Linear(in_features=128, out_features=256, bias=True)
    (1): BatchNorm1d(256, eps=1e-05, momentum=0.1, affine=True, track_running_stats=True)
    (2): ReLU()
  )
  (head): Linear(in_features=256, out_features=31, bias=True)
)
torch.Size([2, 3, 32, 32])
ImageClassifier(
  (backbone): ConvNet(
    (features): Sequential(
      (0): Conv2d(3, 128, kernel_size=(3, 3), stride=(1, 1), padding=(1, 1))
      (1): GroupNorm(128, 128, eps=1e-05, affine=True)
      (2): ReLU(inplace=True)
      (3): AvgPool2d(kernel_size=2, stride=2, padding=0)
      (4): Conv2d(128, 128, kernel_size=(3, 3), stride=(1, 1), padding=(1, 1))
      (5): GroupNorm(128, 128, eps=1e-05, affine=True)
      (6): ReLU(inplace=True)
      (7): AvgPool2d(kernel_size=2, stride=2, padding=0)
      (8): Conv2d(128, 128, kernel_size=(3, 3), stride=(1, 1), padding=(1, 1))
      (9): GroupNorm(128, 128, eps=1e-05, affine=True)
      (10): ReLU(inplace=True)
      (11): AvgPool2d(kernel_size=2, stride=2, padding=0)
    )
    (classifier): Linear(in_features=128, out_features=31, bias=True)
  )
  (pool_layer): Sequential(
    (0): AdaptiveAvgPool2d(output_size=(1, 1))
    (1): Flatten(start_dim=1, end_dim=-1)
  )
  (bottleneck): Sequential(
    (0): Linear(in_features=128, out_features=256, bias=True)
    (1): BatchNorm1d(256, eps=1e-05, momentum=0.1, affine=True, track_running_stats=True)
    (2): ReLU()
  )
  (head): Linear(in_features=256, out_features=31, bias=True)
)
torch.Size([2, 3, 32, 32])
ImageClassifier(
  (backbone): ConvNet(
    (features): Sequential(
      (0): Conv2d(3, 128, kernel_size=(3, 3), stride=(1, 1), padding=(1, 1))
      (1): GroupNorm(128, 128, eps=1e-05, affine=True)
      (2): ReLU(inplace=True)
      (3): AvgPool2d(kernel_size=2, stride=2, padding=0)
      (4): Conv2d(128, 128, kernel_size=(3, 3), stride=(1, 1), padding=(1, 1))
      (5): GroupNorm(128, 128, eps=1e-05, affine=True)
      (6): ReLU(inplace=True)
      (7): AvgPool2d(kernel_size=2, stride=2, padding=0)
      (8): Conv2d(128, 128, kernel_size=(3, 3), stride=(1, 1), padding=(1, 1))
      (9): GroupNorm(128, 128, eps=1e-05, affine=True)
      (10): ReLU(inplace=True)
      (11): AvgPool2d(kernel_size=2, stride=2, padding=0)
    )
    (classifier): Linear(in_features=128, out_features=31, bias=True)
  )
  (pool_layer): Sequential(
    (0): AdaptiveAvgPool2d(output_size=(1, 1))
    (1): Flatten(start_dim=1, end_dim=-1)
  )
  (bottleneck): Sequential(
    (0): Linear(in_features=128, out_features=256, bias=True)
    (1): BatchNorm1d(256, eps=1e-05, momentum=0.1, affine=True, track_running_stats=True)
    (2): ReLU()
  )
  (head): Linear(in_features=256, out_features=31, bias=True)
)
torch.Size([2, 3, 32, 32])
ImageClassifier(
  (backbone): ConvNet(
    (features): Sequential(
      (0): Conv2d(3, 128, kernel_size=(3, 3), stride=(1, 1), padding=(1, 1))
      (1): GroupNorm(128, 128, eps=1e-05, affine=True)
      (2): ReLU(inplace=True)
      (3): AvgPool2d(kernel_size=2, stride=2, padding=0)
      (4): Conv2d(128, 128, kernel_size=(3, 3), stride=(1, 1), padding=(1, 1))
      (5): GroupNorm(128, 128, eps=1e-05, affine=True)
      (6): ReLU(inplace=True)
      (7): AvgPool2d(kernel_size=2, stride=2, padding=0)
      (8): Conv2d(128, 128, kernel_size=(3, 3), stride=(1, 1), padding=(1, 1))
      (9): GroupNorm(128, 128, eps=1e-05, affine=True)
      (10): ReLU(inplace=True)
      (11): AvgPool2d(kernel_size=2, stride=2, padding=0)
    )
    (classifier): Linear(in_features=128, out_features=31, bias=True)
  )
  (pool_layer): Sequential(
    (0): AdaptiveAvgPool2d(output_size=(1, 1))
    (1): Flatten(start_dim=1, end_dim=-1)
  )
  (bottleneck): Sequential(
    (0): Linear(in_features=128, out_features=256, bias=True)
    (1): BatchNorm1d(256, eps=1e-05, momentum=0.1, affine=True, track_running_stats=True)
    (2): ReLU()
  )
  (head): Linear(in_features=256, out_features=31, bias=True)
)
torch.Size([2, 3, 32, 32])
ImageClassifier(
  (backbone): ConvNet(
    (features): Sequential(
      (0): Conv2d(3, 128, kernel_size=(3, 3), stride=(1, 1), padding=(1, 1))
      (1): GroupNorm(128, 128, eps=1e-05, affine=True)
      (2): ReLU(inplace=True)
      (3): AvgPool2d(kernel_size=2, stride=2, padding=0)
      (4): Conv2d(128, 128, kernel_size=(3, 3), stride=(1, 1), padding=(1, 1))
      (5): GroupNorm(128, 128, eps=1e-05, affine=True)
      (6): ReLU(inplace=True)
      (7): AvgPool2d(kernel_size=2, stride=2, padding=0)
      (8): Conv2d(128, 128, kernel_size=(3, 3), stride=(1, 1), padding=(1, 1))
      (9): GroupNorm(128, 128, eps=1e-05, affine=True)
      (10): ReLU(inplace=True)
      (11): AvgPool2d(kernel_size=2, stride=2, padding=0)
    )
    (classifier): Linear(in_features=128, out_features=31, bias=True)
  )
  (pool_layer): Sequential(
    (0): AdaptiveAvgPool2d(output_size=(1, 1))
    (1): Flatten(start_dim=1, end_dim=-1)
  )
  (bottleneck): Sequential(
    (0): Linear(in_features=128, out_features=256, bias=True)
    (1): BatchNorm1d(256, eps=1e-05, momentum=0.1, affine=True, track_running_stats=True)
    (2): ReLU()
  )
  (head): Linear(in_features=256, out_features=31, bias=True)
)
torch.Size([2, 3, 32, 32])
ImageClassifier(
  (backbone): ConvNet(
    (features): Sequential(
      (0): Conv2d(3, 128, kernel_size=(3, 3), stride=(1, 1), padding=(1, 1))
      (1): GroupNorm(128, 128, eps=1e-05, affine=True)
      (2): ReLU(inplace=True)
      (3): AvgPool2d(kernel_size=2, stride=2, padding=0)
      (4): Conv2d(128, 128, kernel_size=(3, 3), stride=(1, 1), padding=(1, 1))
      (5): GroupNorm(128, 128, eps=1e-05, affine=True)
      (6): ReLU(inplace=True)
      (7): AvgPool2d(kernel_size=2, stride=2, padding=0)
      (8): Conv2d(128, 128, kernel_size=(3, 3), stride=(1, 1), padding=(1, 1))
      (9): GroupNorm(128, 128, eps=1e-05, affine=True)
      (10): ReLU(inplace=True)
      (11): AvgPool2d(kernel_size=2, stride=2, padding=0)
    )
    (classifier): Linear(in_features=128, out_features=31, bias=True)
  )
  (pool_layer): Sequential(
    (0): AdaptiveAvgPool2d(output_size=(1, 1))
    (1): Flatten(start_dim=1, end_dim=-1)
  )
  (bottleneck): Sequential(
    (0): Linear(in_features=128, out_features=256, bias=True)
    (1): BatchNorm1d(256, eps=1e-05, momentum=0.1, affine=True, track_running_stats=True)
    (2): ReLU()
  )
  (head): Linear(in_features=256, out_features=31, bias=True)
)
torch.Size([2, 3, 32, 32])
ImageClassifier(
  (backbone): ConvNet(
    (features): Sequential(
      (0): Conv2d(3, 128, kernel_size=(3, 3), stride=(1, 1), padding=(1, 1))
      (1): GroupNorm(128, 128, eps=1e-05, affine=True)
      (2): ReLU(inplace=True)
      (3): AvgPool2d(kernel_size=2, stride=2, padding=0)
      (4): Conv2d(128, 128, kernel_size=(3, 3), stride=(1, 1), padding=(1, 1))
      (5): GroupNorm(128, 128, eps=1e-05, affine=True)
      (6): ReLU(inplace=True)
      (7): AvgPool2d(kernel_size=2, stride=2, padding=0)
      (8): Conv2d(128, 128, kernel_size=(3, 3), stride=(1, 1), padding=(1, 1))
      (9): GroupNorm(128, 128, eps=1e-05, affine=True)
      (10): ReLU(inplace=True)
      (11): AvgPool2d(kernel_size=2, stride=2, padding=0)
    )
    (classifier): Linear(in_features=128, out_features=31, bias=True)
  )
  (pool_layer): Sequential(
    (0): AdaptiveAvgPool2d(output_size=(1, 1))
    (1): Flatten(start_dim=1, end_dim=-1)
  )
  (bottleneck): Sequential(
    (0): Linear(in_features=128, out_features=256, bias=True)
    (1): BatchNorm1d(256, eps=1e-05, momentum=0.1, affine=True, track_running_stats=True)
    (2): ReLU()
  )
  (head): Linear(in_features=256, out_features=31, bias=True)
)
torch.Size([2, 3, 32, 32])
ImageClassifier(
  (backbone): ConvNet(
    (features): Sequential(
      (0): Conv2d(3, 128, kernel_size=(3, 3), stride=(1, 1), padding=(1, 1))
      (1): GroupNorm(128, 128, eps=1e-05, affine=True)
      (2): ReLU(inplace=True)
      (3): AvgPool2d(kernel_size=2, stride=2, padding=0)
      (4): Conv2d(128, 128, kernel_size=(3, 3), stride=(1, 1), padding=(1, 1))
      (5): GroupNorm(128, 128, eps=1e-05, affine=True)
      (6): ReLU(inplace=True)
      (7): AvgPool2d(kernel_size=2, stride=2, padding=0)
      (8): Conv2d(128, 128, kernel_size=(3, 3), stride=(1, 1), padding=(1, 1))
      (9): GroupNorm(128, 128, eps=1e-05, affine=True)
      (10): ReLU(inplace=True)
      (11): AvgPool2d(kernel_size=2, stride=2, padding=0)
    )
    (classifier): Linear(in_features=128, out_features=31, bias=True)
  )
  (pool_layer): Sequential(
    (0): AdaptiveAvgPool2d(output_size=(1, 1))
    (1): Flatten(start_dim=1, end_dim=-1)
  )
  (bottleneck): Sequential(
    (0): Linear(in_features=128, out_features=256, bias=True)
    (1): BatchNorm1d(256, eps=1e-05, momentum=0.1, affine=True, track_running_stats=True)
    (2): ReLU()
  )
  (head): Linear(in_features=256, out_features=31, bias=True)
)
torch.Size([2, 3, 32, 32])
ImageClassifier(
  (backbone): ConvNet(
    (features): Sequential(
      (0): Conv2d(3, 128, kernel_size=(3, 3), stride=(1, 1), padding=(1, 1))
      (1): GroupNorm(128, 128, eps=1e-05, affine=True)
      (2): ReLU(inplace=True)
      (3): AvgPool2d(kernel_size=2, stride=2, padding=0)
      (4): Conv2d(128, 128, kernel_size=(3, 3), stride=(1, 1), padding=(1, 1))
      (5): GroupNorm(128, 128, eps=1e-05, affine=True)
      (6): ReLU(inplace=True)
      (7): AvgPool2d(kernel_size=2, stride=2, padding=0)
      (8): Conv2d(128, 128, kernel_size=(3, 3), stride=(1, 1), padding=(1, 1))
      (9): GroupNorm(128, 128, eps=1e-05, affine=True)
      (10): ReLU(inplace=True)
      (11): AvgPool2d(kernel_size=2, stride=2, padding=0)
    )
    (classifier): Linear(in_features=128, out_features=31, bias=True)
  )
  (pool_layer): Sequential(
    (0): AdaptiveAvgPool2d(output_size=(1, 1))
    (1): Flatten(start_dim=1, end_dim=-1)
  )
  (bottleneck): Sequential(
    (0): Linear(in_features=128, out_features=256, bias=True)
    (1): BatchNorm1d(256, eps=1e-05, momentum=0.1, affine=True, track_running_stats=True)
    (2): ReLU()
  )
  (head): Linear(in_features=256, out_features=31, bias=True)
)
torch.Size([2, 3, 32, 32])
ImageClassifier(
  (backbone): ConvNet(
    (features): Sequential(
      (0): Conv2d(3, 128, kernel_size=(3, 3), stride=(1, 1), padding=(1, 1))
      (1): GroupNorm(128, 128, eps=1e-05, affine=True)
      (2): ReLU(inplace=True)
      (3): AvgPool2d(kernel_size=2, stride=2, padding=0)
      (4): Conv2d(128, 128, kernel_size=(3, 3), stride=(1, 1), padding=(1, 1))
      (5): GroupNorm(128, 128, eps=1e-05, affine=True)
      (6): ReLU(inplace=True)
      (7): AvgPool2d(kernel_size=2, stride=2, padding=0)
      (8): Conv2d(128, 128, kernel_size=(3, 3), stride=(1, 1), padding=(1, 1))
      (9): GroupNorm(128, 128, eps=1e-05, affine=True)
      (10): ReLU(inplace=True)
      (11): AvgPool2d(kernel_size=2, stride=2, padding=0)
    )
    (classifier): Linear(in_features=128, out_features=31, bias=True)
  )
  (pool_layer): Sequential(
    (0): AdaptiveAvgPool2d(output_size=(1, 1))
    (1): Flatten(start_dim=1, end_dim=-1)
  )
  (bottleneck): Sequential(
    (0): Linear(in_features=128, out_features=256, bias=True)
    (1): BatchNorm1d(256, eps=1e-05, momentum=0.1, affine=True, track_running_stats=True)
    (2): ReLU()
  )
  (head): Linear(in_features=256, out_features=31, bias=True)
)
torch.Size([2, 3, 32, 32])
ImageClassifier(
  (backbone): ConvNet(
    (features): Sequential(
      (0): Conv2d(3, 128, kernel_size=(3, 3), stride=(1, 1), padding=(1, 1))
      (1): GroupNorm(128, 128, eps=1e-05, affine=True)
      (2): ReLU(inplace=True)
      (3): AvgPool2d(kernel_size=2, stride=2, padding=0)
      (4): Conv2d(128, 128, kernel_size=(3, 3), stride=(1, 1), padding=(1, 1))
      (5): GroupNorm(128, 128, eps=1e-05, affine=True)
      (6): ReLU(inplace=True)
      (7): AvgPool2d(kernel_size=2, stride=2, padding=0)
      (8): Conv2d(128, 128, kernel_size=(3, 3), stride=(1, 1), padding=(1, 1))
      (9): GroupNorm(128, 128, eps=1e-05, affine=True)
      (10): ReLU(inplace=True)
      (11): AvgPool2d(kernel_size=2, stride=2, padding=0)
    )
    (classifier): Linear(in_features=128, out_features=31, bias=True)
  )
  (pool_layer): Sequential(
    (0): AdaptiveAvgPool2d(output_size=(1, 1))
    (1): Flatten(start_dim=1, end_dim=-1)
  )
  (bottleneck): Sequential(
    (0): Linear(in_features=128, out_features=256, bias=True)
    (1): BatchNorm1d(256, eps=1e-05, momentum=0.1, affine=True, track_running_stats=True)
    (2): ReLU()
  )
  (head): Linear(in_features=256, out_features=31, bias=True)
)
torch.Size([2, 3, 32, 32])
ImageClassifier(
  (backbone): ConvNet(
    (features): Sequential(
      (0): Conv2d(3, 128, kernel_size=(3, 3), stride=(1, 1), padding=(1, 1))
      (1): GroupNorm(128, 128, eps=1e-05, affine=True)
      (2): ReLU(inplace=True)
      (3): AvgPool2d(kernel_size=2, stride=2, padding=0)
      (4): Conv2d(128, 128, kernel_size=(3, 3), stride=(1, 1), padding=(1, 1))
      (5): GroupNorm(128, 128, eps=1e-05, affine=True)
      (6): ReLU(inplace=True)
      (7): AvgPool2d(kernel_size=2, stride=2, padding=0)
      (8): Conv2d(128, 128, kernel_size=(3, 3), stride=(1, 1), padding=(1, 1))
      (9): GroupNorm(128, 128, eps=1e-05, affine=True)
      (10): ReLU(inplace=True)
      (11): AvgPool2d(kernel_size=2, stride=2, padding=0)
    )
    (classifier): Linear(in_features=128, out_features=31, bias=True)
  )
  (pool_layer): Sequential(
    (0): AdaptiveAvgPool2d(output_size=(1, 1))
    (1): Flatten(start_dim=1, end_dim=-1)
  )
  (bottleneck): Sequential(
    (0): Linear(in_features=128, out_features=256, bias=True)
    (1): BatchNorm1d(256, eps=1e-05, momentum=0.1, affine=True, track_running_stats=True)
    (2): ReLU()
  )
  (head): Linear(in_features=256, out_features=31, bias=True)
)
torch.Size([2, 3, 32, 32])
ImageClassifier(
  (backbone): ConvNet(
    (features): Sequential(
      (0): Conv2d(3, 128, kernel_size=(3, 3), stride=(1, 1), padding=(1, 1))
      (1): GroupNorm(128, 128, eps=1e-05, affine=True)
      (2): ReLU(inplace=True)
      (3): AvgPool2d(kernel_size=2, stride=2, padding=0)
      (4): Conv2d(128, 128, kernel_size=(3, 3), stride=(1, 1), padding=(1, 1))
      (5): GroupNorm(128, 128, eps=1e-05, affine=True)
      (6): ReLU(inplace=True)
      (7): AvgPool2d(kernel_size=2, stride=2, padding=0)
      (8): Conv2d(128, 128, kernel_size=(3, 3), stride=(1, 1), padding=(1, 1))
      (9): GroupNorm(128, 128, eps=1e-05, affine=True)
      (10): ReLU(inplace=True)
      (11): AvgPool2d(kernel_size=2, stride=2, padding=0)
    )
    (classifier): Linear(in_features=128, out_features=31, bias=True)
  )
  (pool_layer): Sequential(
    (0): AdaptiveAvgPool2d(output_size=(1, 1))
    (1): Flatten(start_dim=1, end_dim=-1)
  )
  (bottleneck): Sequential(
    (0): Linear(in_features=128, out_features=256, bias=True)
    (1): BatchNorm1d(256, eps=1e-05, momentum=0.1, affine=True, track_running_stats=True)
    (2): ReLU()
  )
  (head): Linear(in_features=256, out_features=31, bias=True)
)
torch.Size([2, 3, 32, 32])
ImageClassifier(
  (backbone): ConvNet(
    (features): Sequential(
      (0): Conv2d(3, 128, kernel_size=(3, 3), stride=(1, 1), padding=(1, 1))
      (1): GroupNorm(128, 128, eps=1e-05, affine=True)
      (2): ReLU(inplace=True)
      (3): AvgPool2d(kernel_size=2, stride=2, padding=0)
      (4): Conv2d(128, 128, kernel_size=(3, 3), stride=(1, 1), padding=(1, 1))
      (5): GroupNorm(128, 128, eps=1e-05, affine=True)
      (6): ReLU(inplace=True)
      (7): AvgPool2d(kernel_size=2, stride=2, padding=0)
      (8): Conv2d(128, 128, kernel_size=(3, 3), stride=(1, 1), padding=(1, 1))
      (9): GroupNorm(128, 128, eps=1e-05, affine=True)
      (10): ReLU(inplace=True)
      (11): AvgPool2d(kernel_size=2, stride=2, padding=0)
    )
    (classifier): Linear(in_features=128, out_features=31, bias=True)
  )
  (pool_layer): Sequential(
    (0): AdaptiveAvgPool2d(output_size=(1, 1))
    (1): Flatten(start_dim=1, end_dim=-1)
  )
  (bottleneck): Sequential(
    (0): Linear(in_features=128, out_features=256, bias=True)
    (1): BatchNorm1d(256, eps=1e-05, momentum=0.1, affine=True, track_running_stats=True)
    (2): ReLU()
  )
  (head): Linear(in_features=256, out_features=31, bias=True)
)
torch.Size([2, 3, 32, 32])
ImageClassifier(
  (backbone): ConvNet(
    (features): Sequential(
      (0): Conv2d(3, 128, kernel_size=(3, 3), stride=(1, 1), padding=(1, 1))
      (1): GroupNorm(128, 128, eps=1e-05, affine=True)
      (2): ReLU(inplace=True)
      (3): AvgPool2d(kernel_size=2, stride=2, padding=0)
      (4): Conv2d(128, 128, kernel_size=(3, 3), stride=(1, 1), padding=(1, 1))
      (5): GroupNorm(128, 128, eps=1e-05, affine=True)
      (6): ReLU(inplace=True)
      (7): AvgPool2d(kernel_size=2, stride=2, padding=0)
      (8): Conv2d(128, 128, kernel_size=(3, 3), stride=(1, 1), padding=(1, 1))
      (9): GroupNorm(128, 128, eps=1e-05, affine=True)
      (10): ReLU(inplace=True)
      (11): AvgPool2d(kernel_size=2, stride=2, padding=0)
    )
    (classifier): Linear(in_features=128, out_features=31, bias=True)
  )
  (pool_layer): Sequential(
    (0): AdaptiveAvgPool2d(output_size=(1, 1))
    (1): Flatten(start_dim=1, end_dim=-1)
  )
  (bottleneck): Sequential(
    (0): Linear(in_features=128, out_features=256, bias=True)
    (1): BatchNorm1d(256, eps=1e-05, momentum=0.1, affine=True, track_running_stats=True)
    (2): ReLU()
  )
  (head): Linear(in_features=256, out_features=31, bias=True)
)
torch.Size([2, 3, 32, 32])
ImageClassifier(
  (backbone): ConvNet(
    (features): Sequential(
      (0): Conv2d(3, 128, kernel_size=(3, 3), stride=(1, 1), padding=(1, 1))
      (1): GroupNorm(128, 128, eps=1e-05, affine=True)
      (2): ReLU(inplace=True)
      (3): AvgPool2d(kernel_size=2, stride=2, padding=0)
      (4): Conv2d(128, 128, kernel_size=(3, 3), stride=(1, 1), padding=(1, 1))
      (5): GroupNorm(128, 128, eps=1e-05, affine=True)
      (6): ReLU(inplace=True)
      (7): AvgPool2d(kernel_size=2, stride=2, padding=0)
      (8): Conv2d(128, 128, kernel_size=(3, 3), stride=(1, 1), padding=(1, 1))
      (9): GroupNorm(128, 128, eps=1e-05, affine=True)
      (10): ReLU(inplace=True)
      (11): AvgPool2d(kernel_size=2, stride=2, padding=0)
    )
    (classifier): Linear(in_features=128, out_features=31, bias=True)
  )
  (pool_layer): Sequential(
    (0): AdaptiveAvgPool2d(output_size=(1, 1))
    (1): Flatten(start_dim=1, end_dim=-1)
  )
  (bottleneck): Sequential(
    (0): Linear(in_features=128, out_features=256, bias=True)
    (1): BatchNorm1d(256, eps=1e-05, momentum=0.1, affine=True, track_running_stats=True)
    (2): ReLU()
  )
  (head): Linear(in_features=256, out_features=31, bias=True)
)
torch.Size([2, 3, 32, 32])
ImageClassifier(
  (backbone): ConvNet(
    (features): Sequential(
      (0): Conv2d(3, 128, kernel_size=(3, 3), stride=(1, 1), padding=(1, 1))
      (1): GroupNorm(128, 128, eps=1e-05, affine=True)
      (2): ReLU(inplace=True)
      (3): AvgPool2d(kernel_size=2, stride=2, padding=0)
      (4): Conv2d(128, 128, kernel_size=(3, 3), stride=(1, 1), padding=(1, 1))
      (5): GroupNorm(128, 128, eps=1e-05, affine=True)
      (6): ReLU(inplace=True)
      (7): AvgPool2d(kernel_size=2, stride=2, padding=0)
      (8): Conv2d(128, 128, kernel_size=(3, 3), stride=(1, 1), padding=(1, 1))
      (9): GroupNorm(128, 128, eps=1e-05, affine=True)
      (10): ReLU(inplace=True)
      (11): AvgPool2d(kernel_size=2, stride=2, padding=0)
    )
    (classifier): Linear(in_features=128, out_features=31, bias=True)
  )
  (pool_layer): Sequential(
    (0): AdaptiveAvgPool2d(output_size=(1, 1))
    (1): Flatten(start_dim=1, end_dim=-1)
  )
  (bottleneck): Sequential(
    (0): Linear(in_features=128, out_features=256, bias=True)
    (1): BatchNorm1d(256, eps=1e-05, momentum=0.1, affine=True, track_running_stats=True)
    (2): ReLU()
  )
  (head): Linear(in_features=256, out_features=31, bias=True)
)
torch.Size([2, 3, 32, 32])
ImageClassifier(
  (backbone): ConvNet(
    (features): Sequential(
      (0): Conv2d(3, 128, kernel_size=(3, 3), stride=(1, 1), padding=(1, 1))
      (1): GroupNorm(128, 128, eps=1e-05, affine=True)
      (2): ReLU(inplace=True)
      (3): AvgPool2d(kernel_size=2, stride=2, padding=0)
      (4): Conv2d(128, 128, kernel_size=(3, 3), stride=(1, 1), padding=(1, 1))
      (5): GroupNorm(128, 128, eps=1e-05, affine=True)
      (6): ReLU(inplace=True)
      (7): AvgPool2d(kernel_size=2, stride=2, padding=0)
      (8): Conv2d(128, 128, kernel_size=(3, 3), stride=(1, 1), padding=(1, 1))
      (9): GroupNorm(128, 128, eps=1e-05, affine=True)
      (10): ReLU(inplace=True)
      (11): AvgPool2d(kernel_size=2, stride=2, padding=0)
    )
    (classifier): Linear(in_features=128, out_features=31, bias=True)
  )
  (pool_layer): Sequential(
    (0): AdaptiveAvgPool2d(output_size=(1, 1))
    (1): Flatten(start_dim=1, end_dim=-1)
  )
  (bottleneck): Sequential(
    (0): Linear(in_features=128, out_features=256, bias=True)
    (1): BatchNorm1d(256, eps=1e-05, momentum=0.1, affine=True, track_running_stats=True)
    (2): ReLU()
  )
  (head): Linear(in_features=256, out_features=31, bias=True)
)
torch.Size([2, 3, 32, 32])
ImageClassifier(
  (backbone): ConvNet(
    (features): Sequential(
      (0): Conv2d(3, 128, kernel_size=(3, 3), stride=(1, 1), padding=(1, 1))
      (1): GroupNorm(128, 128, eps=1e-05, affine=True)
      (2): ReLU(inplace=True)
      (3): AvgPool2d(kernel_size=2, stride=2, padding=0)
      (4): Conv2d(128, 128, kernel_size=(3, 3), stride=(1, 1), padding=(1, 1))
      (5): GroupNorm(128, 128, eps=1e-05, affine=True)
      (6): ReLU(inplace=True)
      (7): AvgPool2d(kernel_size=2, stride=2, padding=0)
      (8): Conv2d(128, 128, kernel_size=(3, 3), stride=(1, 1), padding=(1, 1))
      (9): GroupNorm(128, 128, eps=1e-05, affine=True)
      (10): ReLU(inplace=True)
      (11): AvgPool2d(kernel_size=2, stride=2, padding=0)
    )
    (classifier): Linear(in_features=128, out_features=31, bias=True)
  )
  (pool_layer): Sequential(
    (0): AdaptiveAvgPool2d(output_size=(1, 1))
    (1): Flatten(start_dim=1, end_dim=-1)
  )
  (bottleneck): Sequential(
    (0): Linear(in_features=128, out_features=256, bias=True)
    (1): BatchNorm1d(256, eps=1e-05, momentum=0.1, affine=True, track_running_stats=True)
    (2): ReLU()
  )
  (head): Linear(in_features=256, out_features=31, bias=True)
)
torch.Size([2, 3, 32, 32])
ImageClassifier(
  (backbone): ConvNet(
    (features): Sequential(
      (0): Conv2d(3, 128, kernel_size=(3, 3), stride=(1, 1), padding=(1, 1))
      (1): GroupNorm(128, 128, eps=1e-05, affine=True)
      (2): ReLU(inplace=True)
      (3): AvgPool2d(kernel_size=2, stride=2, padding=0)
      (4): Conv2d(128, 128, kernel_size=(3, 3), stride=(1, 1), padding=(1, 1))
      (5): GroupNorm(128, 128, eps=1e-05, affine=True)
      (6): ReLU(inplace=True)
      (7): AvgPool2d(kernel_size=2, stride=2, padding=0)
      (8): Conv2d(128, 128, kernel_size=(3, 3), stride=(1, 1), padding=(1, 1))
      (9): GroupNorm(128, 128, eps=1e-05, affine=True)
      (10): ReLU(inplace=True)
      (11): AvgPool2d(kernel_size=2, stride=2, padding=0)
    )
    (classifier): Linear(in_features=128, out_features=31, bias=True)
  )
  (pool_layer): Sequential(
    (0): AdaptiveAvgPool2d(output_size=(1, 1))
    (1): Flatten(start_dim=1, end_dim=-1)
  )
  (bottleneck): Sequential(
    (0): Linear(in_features=128, out_features=256, bias=True)
    (1): BatchNorm1d(256, eps=1e-05, momentum=0.1, affine=True, track_running_stats=True)
    (2): ReLU()
  )
  (head): Linear(in_features=256, out_features=31, bias=True)
)
torch.Size([2, 3, 32, 32])
ImageClassifier(
  (backbone): ConvNet(
    (features): Sequential(
      (0): Conv2d(3, 128, kernel_size=(3, 3), stride=(1, 1), padding=(1, 1))
      (1): GroupNorm(128, 128, eps=1e-05, affine=True)
      (2): ReLU(inplace=True)
      (3): AvgPool2d(kernel_size=2, stride=2, padding=0)
      (4): Conv2d(128, 128, kernel_size=(3, 3), stride=(1, 1), padding=(1, 1))
      (5): GroupNorm(128, 128, eps=1e-05, affine=True)
      (6): ReLU(inplace=True)
      (7): AvgPool2d(kernel_size=2, stride=2, padding=0)
      (8): Conv2d(128, 128, kernel_size=(3, 3), stride=(1, 1), padding=(1, 1))
      (9): GroupNorm(128, 128, eps=1e-05, affine=True)
      (10): ReLU(inplace=True)
      (11): AvgPool2d(kernel_size=2, stride=2, padding=0)
    )
    (classifier): Linear(in_features=128, out_features=31, bias=True)
  )
  (pool_layer): Sequential(
    (0): AdaptiveAvgPool2d(output_size=(1, 1))
    (1): Flatten(start_dim=1, end_dim=-1)
  )
  (bottleneck): Sequential(
    (0): Linear(in_features=128, out_features=256, bias=True)
    (1): BatchNorm1d(256, eps=1e-05, momentum=0.1, affine=True, track_running_stats=True)
    (2): ReLU()
  )
  (head): Linear(in_features=256, out_features=31, bias=True)
)
torch.Size([2, 3, 32, 32])
ImageClassifier(
  (backbone): ConvNet(
    (features): Sequential(
      (0): Conv2d(3, 128, kernel_size=(3, 3), stride=(1, 1), padding=(1, 1))
      (1): GroupNorm(128, 128, eps=1e-05, affine=True)
      (2): ReLU(inplace=True)
      (3): AvgPool2d(kernel_size=2, stride=2, padding=0)
      (4): Conv2d(128, 128, kernel_size=(3, 3), stride=(1, 1), padding=(1, 1))
      (5): GroupNorm(128, 128, eps=1e-05, affine=True)
      (6): ReLU(inplace=True)
      (7): AvgPool2d(kernel_size=2, stride=2, padding=0)
      (8): Conv2d(128, 128, kernel_size=(3, 3), stride=(1, 1), padding=(1, 1))
      (9): GroupNorm(128, 128, eps=1e-05, affine=True)
      (10): ReLU(inplace=True)
      (11): AvgPool2d(kernel_size=2, stride=2, padding=0)
    )
    (classifier): Linear(in_features=128, out_features=31, bias=True)
  )
  (pool_layer): Sequential(
    (0): AdaptiveAvgPool2d(output_size=(1, 1))
    (1): Flatten(start_dim=1, end_dim=-1)
  )
  (bottleneck): Sequential(
    (0): Linear(in_features=128, out_features=256, bias=True)
    (1): BatchNorm1d(256, eps=1e-05, momentum=0.1, affine=True, track_running_stats=True)
    (2): ReLU()
  )
  (head): Linear(in_features=256, out_features=31, bias=True)
)
torch.Size([2, 3, 32, 32])
ImageClassifier(
  (backbone): ConvNet(
    (features): Sequential(
      (0): Conv2d(3, 128, kernel_size=(3, 3), stride=(1, 1), padding=(1, 1))
      (1): GroupNorm(128, 128, eps=1e-05, affine=True)
      (2): ReLU(inplace=True)
      (3): AvgPool2d(kernel_size=2, stride=2, padding=0)
      (4): Conv2d(128, 128, kernel_size=(3, 3), stride=(1, 1), padding=(1, 1))
      (5): GroupNorm(128, 128, eps=1e-05, affine=True)
      (6): ReLU(inplace=True)
      (7): AvgPool2d(kernel_size=2, stride=2, padding=0)
      (8): Conv2d(128, 128, kernel_size=(3, 3), stride=(1, 1), padding=(1, 1))
      (9): GroupNorm(128, 128, eps=1e-05, affine=True)
      (10): ReLU(inplace=True)
      (11): AvgPool2d(kernel_size=2, stride=2, padding=0)
    )
    (classifier): Linear(in_features=128, out_features=31, bias=True)
  )
  (pool_layer): Sequential(
    (0): AdaptiveAvgPool2d(output_size=(1, 1))
    (1): Flatten(start_dim=1, end_dim=-1)
  )
  (bottleneck): Sequential(
    (0): Linear(in_features=128, out_features=256, bias=True)
    (1): BatchNorm1d(256, eps=1e-05, momentum=0.1, affine=True, track_running_stats=True)
    (2): ReLU()
  )
  (head): Linear(in_features=256, out_features=31, bias=True)
)
torch.Size([2, 3, 32, 32])
ImageClassifier(
  (backbone): ConvNet(
    (features): Sequential(
      (0): Conv2d(3, 128, kernel_size=(3, 3), stride=(1, 1), padding=(1, 1))
      (1): GroupNorm(128, 128, eps=1e-05, affine=True)
      (2): ReLU(inplace=True)
      (3): AvgPool2d(kernel_size=2, stride=2, padding=0)
      (4): Conv2d(128, 128, kernel_size=(3, 3), stride=(1, 1), padding=(1, 1))
      (5): GroupNorm(128, 128, eps=1e-05, affine=True)
      (6): ReLU(inplace=True)
      (7): AvgPool2d(kernel_size=2, stride=2, padding=0)
      (8): Conv2d(128, 128, kernel_size=(3, 3), stride=(1, 1), padding=(1, 1))
      (9): GroupNorm(128, 128, eps=1e-05, affine=True)
      (10): ReLU(inplace=True)
      (11): AvgPool2d(kernel_size=2, stride=2, padding=0)
    )
    (classifier): Linear(in_features=128, out_features=31, bias=True)
  )
  (pool_layer): Sequential(
    (0): AdaptiveAvgPool2d(output_size=(1, 1))
    (1): Flatten(start_dim=1, end_dim=-1)
  )
  (bottleneck): Sequential(
    (0): Linear(in_features=128, out_features=256, bias=True)
    (1): BatchNorm1d(256, eps=1e-05, momentum=0.1, affine=True, track_running_stats=True)
    (2): ReLU()
  )
  (head): Linear(in_features=256, out_features=31, bias=True)
)
torch.Size([2, 3, 32, 32])
ImageClassifier(
  (backbone): ConvNet(
    (features): Sequential(
      (0): Conv2d(3, 128, kernel_size=(3, 3), stride=(1, 1), padding=(1, 1))
      (1): GroupNorm(128, 128, eps=1e-05, affine=True)
      (2): ReLU(inplace=True)
      (3): AvgPool2d(kernel_size=2, stride=2, padding=0)
      (4): Conv2d(128, 128, kernel_size=(3, 3), stride=(1, 1), padding=(1, 1))
      (5): GroupNorm(128, 128, eps=1e-05, affine=True)
      (6): ReLU(inplace=True)
      (7): AvgPool2d(kernel_size=2, stride=2, padding=0)
      (8): Conv2d(128, 128, kernel_size=(3, 3), stride=(1, 1), padding=(1, 1))
      (9): GroupNorm(128, 128, eps=1e-05, affine=True)
      (10): ReLU(inplace=True)
      (11): AvgPool2d(kernel_size=2, stride=2, padding=0)
    )
    (classifier): Linear(in_features=128, out_features=31, bias=True)
  )
  (pool_layer): Sequential(
    (0): AdaptiveAvgPool2d(output_size=(1, 1))
    (1): Flatten(start_dim=1, end_dim=-1)
  )
  (bottleneck): Sequential(
    (0): Linear(in_features=128, out_features=256, bias=True)
    (1): BatchNorm1d(256, eps=1e-05, momentum=0.1, affine=True, track_running_stats=True)
    (2): ReLU()
  )
  (head): Linear(in_features=256, out_features=31, bias=True)
)
torch.Size([2, 3, 32, 32])
ImageClassifier(
  (backbone): ConvNet(
    (features): Sequential(
      (0): Conv2d(3, 128, kernel_size=(3, 3), stride=(1, 1), padding=(1, 1))
      (1): GroupNorm(128, 128, eps=1e-05, affine=True)
      (2): ReLU(inplace=True)
      (3): AvgPool2d(kernel_size=2, stride=2, padding=0)
      (4): Conv2d(128, 128, kernel_size=(3, 3), stride=(1, 1), padding=(1, 1))
      (5): GroupNorm(128, 128, eps=1e-05, affine=True)
      (6): ReLU(inplace=True)
      (7): AvgPool2d(kernel_size=2, stride=2, padding=0)
      (8): Conv2d(128, 128, kernel_size=(3, 3), stride=(1, 1), padding=(1, 1))
      (9): GroupNorm(128, 128, eps=1e-05, affine=True)
      (10): ReLU(inplace=True)
      (11): AvgPool2d(kernel_size=2, stride=2, padding=0)
    )
    (classifier): Linear(in_features=128, out_features=31, bias=True)
  )
  (pool_layer): Sequential(
    (0): AdaptiveAvgPool2d(output_size=(1, 1))
    (1): Flatten(start_dim=1, end_dim=-1)
  )
  (bottleneck): Sequential(
    (0): Linear(in_features=128, out_features=256, bias=True)
    (1): BatchNorm1d(256, eps=1e-05, momentum=0.1, affine=True, track_running_stats=True)
    (2): ReLU()
  )
  (head): Linear(in_features=256, out_features=31, bias=True)
)
torch.Size([2, 3, 32, 32])
ImageClassifier(
  (backbone): ConvNet(
    (features): Sequential(
      (0): Conv2d(3, 128, kernel_size=(3, 3), stride=(1, 1), padding=(1, 1))
      (1): GroupNorm(128, 128, eps=1e-05, affine=True)
      (2): ReLU(inplace=True)
      (3): AvgPool2d(kernel_size=2, stride=2, padding=0)
      (4): Conv2d(128, 128, kernel_size=(3, 3), stride=(1, 1), padding=(1, 1))
      (5): GroupNorm(128, 128, eps=1e-05, affine=True)
      (6): ReLU(inplace=True)
      (7): AvgPool2d(kernel_size=2, stride=2, padding=0)
      (8): Conv2d(128, 128, kernel_size=(3, 3), stride=(1, 1), padding=(1, 1))
      (9): GroupNorm(128, 128, eps=1e-05, affine=True)
      (10): ReLU(inplace=True)
      (11): AvgPool2d(kernel_size=2, stride=2, padding=0)
    )
    (classifier): Linear(in_features=128, out_features=31, bias=True)
  )
  (pool_layer): Sequential(
    (0): AdaptiveAvgPool2d(output_size=(1, 1))
    (1): Flatten(start_dim=1, end_dim=-1)
  )
  (bottleneck): Sequential(
    (0): Linear(in_features=128, out_features=256, bias=True)
    (1): BatchNorm1d(256, eps=1e-05, momentum=0.1, affine=True, track_running_stats=True)
    (2): ReLU()
  )
  (head): Linear(in_features=256, out_features=31, bias=True)
)
torch.Size([2, 3, 32, 32])
ImageClassifier(
  (backbone): ConvNet(
    (features): Sequential(
      (0): Conv2d(3, 128, kernel_size=(3, 3), stride=(1, 1), padding=(1, 1))
      (1): GroupNorm(128, 128, eps=1e-05, affine=True)
      (2): ReLU(inplace=True)
      (3): AvgPool2d(kernel_size=2, stride=2, padding=0)
      (4): Conv2d(128, 128, kernel_size=(3, 3), stride=(1, 1), padding=(1, 1))
      (5): GroupNorm(128, 128, eps=1e-05, affine=True)
      (6): ReLU(inplace=True)
      (7): AvgPool2d(kernel_size=2, stride=2, padding=0)
      (8): Conv2d(128, 128, kernel_size=(3, 3), stride=(1, 1), padding=(1, 1))
      (9): GroupNorm(128, 128, eps=1e-05, affine=True)
      (10): ReLU(inplace=True)
      (11): AvgPool2d(kernel_size=2, stride=2, padding=0)
    )
    (classifier): Linear(in_features=128, out_features=31, bias=True)
  )
  (pool_layer): Sequential(
    (0): AdaptiveAvgPool2d(output_size=(1, 1))
    (1): Flatten(start_dim=1, end_dim=-1)
  )
  (bottleneck): Sequential(
    (0): Linear(in_features=128, out_features=256, bias=True)
    (1): BatchNorm1d(256, eps=1e-05, momentum=0.1, affine=True, track_running_stats=True)
    (2): ReLU()
  )
  (head): Linear(in_features=256, out_features=31, bias=True)
)
torch.Size([2, 3, 32, 32])
ImageClassifier(
  (backbone): ConvNet(
    (features): Sequential(
      (0): Conv2d(3, 128, kernel_size=(3, 3), stride=(1, 1), padding=(1, 1))
      (1): GroupNorm(128, 128, eps=1e-05, affine=True)
      (2): ReLU(inplace=True)
      (3): AvgPool2d(kernel_size=2, stride=2, padding=0)
      (4): Conv2d(128, 128, kernel_size=(3, 3), stride=(1, 1), padding=(1, 1))
      (5): GroupNorm(128, 128, eps=1e-05, affine=True)
      (6): ReLU(inplace=True)
      (7): AvgPool2d(kernel_size=2, stride=2, padding=0)
      (8): Conv2d(128, 128, kernel_size=(3, 3), stride=(1, 1), padding=(1, 1))
      (9): GroupNorm(128, 128, eps=1e-05, affine=True)
      (10): ReLU(inplace=True)
      (11): AvgPool2d(kernel_size=2, stride=2, padding=0)
    )
    (classifier): Linear(in_features=128, out_features=31, bias=True)
  )
  (pool_layer): Sequential(
    (0): AdaptiveAvgPool2d(output_size=(1, 1))
    (1): Flatten(start_dim=1, end_dim=-1)
  )
  (bottleneck): Sequential(
    (0): Linear(in_features=128, out_features=256, bias=True)
    (1): BatchNorm1d(256, eps=1e-05, momentum=0.1, affine=True, track_running_stats=True)
    (2): ReLU()
  )
  (head): Linear(in_features=256, out_features=31, bias=True)
)
torch.Size([2, 3, 32, 32])
ImageClassifier(
  (backbone): ConvNet(
    (features): Sequential(
      (0): Conv2d(3, 128, kernel_size=(3, 3), stride=(1, 1), padding=(1, 1))
      (1): GroupNorm(128, 128, eps=1e-05, affine=True)
      (2): ReLU(inplace=True)
      (3): AvgPool2d(kernel_size=2, stride=2, padding=0)
      (4): Conv2d(128, 128, kernel_size=(3, 3), stride=(1, 1), padding=(1, 1))
      (5): GroupNorm(128, 128, eps=1e-05, affine=True)
      (6): ReLU(inplace=True)
      (7): AvgPool2d(kernel_size=2, stride=2, padding=0)
      (8): Conv2d(128, 128, kernel_size=(3, 3), stride=(1, 1), padding=(1, 1))
      (9): GroupNorm(128, 128, eps=1e-05, affine=True)
      (10): ReLU(inplace=True)
      (11): AvgPool2d(kernel_size=2, stride=2, padding=0)
    )
    (classifier): Linear(in_features=128, out_features=31, bias=True)
  )
  (pool_layer): Sequential(
    (0): AdaptiveAvgPool2d(output_size=(1, 1))
    (1): Flatten(start_dim=1, end_dim=-1)
  )
  (bottleneck): Sequential(
    (0): Linear(in_features=128, out_features=256, bias=True)
    (1): BatchNorm1d(256, eps=1e-05, momentum=0.1, affine=True, track_running_stats=True)
    (2): ReLU()
  )
  (head): Linear(in_features=256, out_features=31, bias=True)
)
torch.Size([2, 3, 32, 32])
ImageClassifier(
  (backbone): ConvNet(
    (features): Sequential(
      (0): Conv2d(3, 128, kernel_size=(3, 3), stride=(1, 1), padding=(1, 1))
      (1): GroupNorm(128, 128, eps=1e-05, affine=True)
      (2): ReLU(inplace=True)
      (3): AvgPool2d(kernel_size=2, stride=2, padding=0)
      (4): Conv2d(128, 128, kernel_size=(3, 3), stride=(1, 1), padding=(1, 1))
      (5): GroupNorm(128, 128, eps=1e-05, affine=True)
      (6): ReLU(inplace=True)
      (7): AvgPool2d(kernel_size=2, stride=2, padding=0)
      (8): Conv2d(128, 128, kernel_size=(3, 3), stride=(1, 1), padding=(1, 1))
      (9): GroupNorm(128, 128, eps=1e-05, affine=True)
      (10): ReLU(inplace=True)
      (11): AvgPool2d(kernel_size=2, stride=2, padding=0)
    )
    (classifier): Linear(in_features=128, out_features=31, bias=True)
  )
  (pool_layer): Sequential(
    (0): AdaptiveAvgPool2d(output_size=(1, 1))
    (1): Flatten(start_dim=1, end_dim=-1)
  )
  (bottleneck): Sequential(
    (0): Linear(in_features=128, out_features=256, bias=True)
    (1): BatchNorm1d(256, eps=1e-05, momentum=0.1, affine=True, track_running_stats=True)
    (2): ReLU()
  )
  (head): Linear(in_features=256, out_features=31, bias=True)
)
torch.Size([2, 3, 32, 32])
ImageClassifier(
  (backbone): ConvNet(
    (features): Sequential(
      (0): Conv2d(3, 128, kernel_size=(3, 3), stride=(1, 1), padding=(1, 1))
      (1): GroupNorm(128, 128, eps=1e-05, affine=True)
      (2): ReLU(inplace=True)
      (3): AvgPool2d(kernel_size=2, stride=2, padding=0)
      (4): Conv2d(128, 128, kernel_size=(3, 3), stride=(1, 1), padding=(1, 1))
      (5): GroupNorm(128, 128, eps=1e-05, affine=True)
      (6): ReLU(inplace=True)
      (7): AvgPool2d(kernel_size=2, stride=2, padding=0)
      (8): Conv2d(128, 128, kernel_size=(3, 3), stride=(1, 1), padding=(1, 1))
      (9): GroupNorm(128, 128, eps=1e-05, affine=True)
      (10): ReLU(inplace=True)
      (11): AvgPool2d(kernel_size=2, stride=2, padding=0)
    )
    (classifier): Linear(in_features=128, out_features=31, bias=True)
  )
  (pool_layer): Sequential(
    (0): AdaptiveAvgPool2d(output_size=(1, 1))
    (1): Flatten(start_dim=1, end_dim=-1)
  )
  (bottleneck): Sequential(
    (0): Linear(in_features=128, out_features=256, bias=True)
    (1): BatchNorm1d(256, eps=1e-05, momentum=0.1, affine=True, track_running_stats=True)
    (2): ReLU()
  )
  (head): Linear(in_features=256, out_features=31, bias=True)
)
torch.Size([2, 3, 32, 32])
ImageClassifier(
  (backbone): ConvNet(
    (features): Sequential(
      (0): Conv2d(3, 128, kernel_size=(3, 3), stride=(1, 1), padding=(1, 1))
      (1): GroupNorm(128, 128, eps=1e-05, affine=True)
      (2): ReLU(inplace=True)
      (3): AvgPool2d(kernel_size=2, stride=2, padding=0)
      (4): Conv2d(128, 128, kernel_size=(3, 3), stride=(1, 1), padding=(1, 1))
      (5): GroupNorm(128, 128, eps=1e-05, affine=True)
      (6): ReLU(inplace=True)
      (7): AvgPool2d(kernel_size=2, stride=2, padding=0)
      (8): Conv2d(128, 128, kernel_size=(3, 3), stride=(1, 1), padding=(1, 1))
      (9): GroupNorm(128, 128, eps=1e-05, affine=True)
      (10): ReLU(inplace=True)
      (11): AvgPool2d(kernel_size=2, stride=2, padding=0)
    )
    (classifier): Linear(in_features=128, out_features=31, bias=True)
  )
  (pool_layer): Sequential(
    (0): AdaptiveAvgPool2d(output_size=(1, 1))
    (1): Flatten(start_dim=1, end_dim=-1)
  )
  (bottleneck): Sequential(
    (0): Linear(in_features=128, out_features=256, bias=True)
    (1): BatchNorm1d(256, eps=1e-05, momentum=0.1, affine=True, track_running_stats=True)
    (2): ReLU()
  )
  (head): Linear(in_features=256, out_features=31, bias=True)
)
torch.Size([2, 3, 32, 32])
ImageClassifier(
  (backbone): ConvNet(
    (features): Sequential(
      (0): Conv2d(3, 128, kernel_size=(3, 3), stride=(1, 1), padding=(1, 1))
      (1): GroupNorm(128, 128, eps=1e-05, affine=True)
      (2): ReLU(inplace=True)
      (3): AvgPool2d(kernel_size=2, stride=2, padding=0)
      (4): Conv2d(128, 128, kernel_size=(3, 3), stride=(1, 1), padding=(1, 1))
      (5): GroupNorm(128, 128, eps=1e-05, affine=True)
      (6): ReLU(inplace=True)
      (7): AvgPool2d(kernel_size=2, stride=2, padding=0)
      (8): Conv2d(128, 128, kernel_size=(3, 3), stride=(1, 1), padding=(1, 1))
      (9): GroupNorm(128, 128, eps=1e-05, affine=True)
      (10): ReLU(inplace=True)
      (11): AvgPool2d(kernel_size=2, stride=2, padding=0)
    )
    (classifier): Linear(in_features=128, out_features=31, bias=True)
  )
  (pool_layer): Sequential(
    (0): AdaptiveAvgPool2d(output_size=(1, 1))
    (1): Flatten(start_dim=1, end_dim=-1)
  )
  (bottleneck): Sequential(
    (0): Linear(in_features=128, out_features=256, bias=True)
    (1): BatchNorm1d(256, eps=1e-05, momentum=0.1, affine=True, track_running_stats=True)
    (2): ReLU()
  )
  (head): Linear(in_features=256, out_features=31, bias=True)
)
torch.Size([2, 3, 32, 32])
ImageClassifier(
  (backbone): ConvNet(
    (features): Sequential(
      (0): Conv2d(3, 128, kernel_size=(3, 3), stride=(1, 1), padding=(1, 1))
      (1): GroupNorm(128, 128, eps=1e-05, affine=True)
      (2): ReLU(inplace=True)
      (3): AvgPool2d(kernel_size=2, stride=2, padding=0)
      (4): Conv2d(128, 128, kernel_size=(3, 3), stride=(1, 1), padding=(1, 1))
      (5): GroupNorm(128, 128, eps=1e-05, affine=True)
      (6): ReLU(inplace=True)
      (7): AvgPool2d(kernel_size=2, stride=2, padding=0)
      (8): Conv2d(128, 128, kernel_size=(3, 3), stride=(1, 1), padding=(1, 1))
      (9): GroupNorm(128, 128, eps=1e-05, affine=True)
      (10): ReLU(inplace=True)
      (11): AvgPool2d(kernel_size=2, stride=2, padding=0)
    )
    (classifier): Linear(in_features=128, out_features=31, bias=True)
  )
  (pool_layer): Sequential(
    (0): AdaptiveAvgPool2d(output_size=(1, 1))
    (1): Flatten(start_dim=1, end_dim=-1)
  )
  (bottleneck): Sequential(
    (0): Linear(in_features=128, out_features=256, bias=True)
    (1): BatchNorm1d(256, eps=1e-05, momentum=0.1, affine=True, track_running_stats=True)
    (2): ReLU()
  )
  (head): Linear(in_features=256, out_features=31, bias=True)
)
torch.Size([2, 3, 32, 32])
ImageClassifier(
  (backbone): ConvNet(
    (features): Sequential(
      (0): Conv2d(3, 128, kernel_size=(3, 3), stride=(1, 1), padding=(1, 1))
      (1): GroupNorm(128, 128, eps=1e-05, affine=True)
      (2): ReLU(inplace=True)
      (3): AvgPool2d(kernel_size=2, stride=2, padding=0)
      (4): Conv2d(128, 128, kernel_size=(3, 3), stride=(1, 1), padding=(1, 1))
      (5): GroupNorm(128, 128, eps=1e-05, affine=True)
      (6): ReLU(inplace=True)
      (7): AvgPool2d(kernel_size=2, stride=2, padding=0)
      (8): Conv2d(128, 128, kernel_size=(3, 3), stride=(1, 1), padding=(1, 1))
      (9): GroupNorm(128, 128, eps=1e-05, affine=True)
      (10): ReLU(inplace=True)
      (11): AvgPool2d(kernel_size=2, stride=2, padding=0)
    )
    (classifier): Linear(in_features=128, out_features=31, bias=True)
  )
  (pool_layer): Sequential(
    (0): AdaptiveAvgPool2d(output_size=(1, 1))
    (1): Flatten(start_dim=1, end_dim=-1)
  )
  (bottleneck): Sequential(
    (0): Linear(in_features=128, out_features=256, bias=True)
    (1): BatchNorm1d(256, eps=1e-05, momentum=0.1, affine=True, track_running_stats=True)
    (2): ReLU()
  )
  (head): Linear(in_features=256, out_features=31, bias=True)
)
torch.Size([2, 3, 32, 32])
ImageClassifier(
  (backbone): ConvNet(
    (features): Sequential(
      (0): Conv2d(3, 128, kernel_size=(3, 3), stride=(1, 1), padding=(1, 1))
      (1): GroupNorm(128, 128, eps=1e-05, affine=True)
      (2): ReLU(inplace=True)
      (3): AvgPool2d(kernel_size=2, stride=2, padding=0)
      (4): Conv2d(128, 128, kernel_size=(3, 3), stride=(1, 1), padding=(1, 1))
      (5): GroupNorm(128, 128, eps=1e-05, affine=True)
      (6): ReLU(inplace=True)
      (7): AvgPool2d(kernel_size=2, stride=2, padding=0)
      (8): Conv2d(128, 128, kernel_size=(3, 3), stride=(1, 1), padding=(1, 1))
      (9): GroupNorm(128, 128, eps=1e-05, affine=True)
      (10): ReLU(inplace=True)
      (11): AvgPool2d(kernel_size=2, stride=2, padding=0)
    )
    (classifier): Linear(in_features=128, out_features=31, bias=True)
  )
  (pool_layer): Sequential(
    (0): AdaptiveAvgPool2d(output_size=(1, 1))
    (1): Flatten(start_dim=1, end_dim=-1)
  )
  (bottleneck): Sequential(
    (0): Linear(in_features=128, out_features=256, bias=True)
    (1): BatchNorm1d(256, eps=1e-05, momentum=0.1, affine=True, track_running_stats=True)
    (2): ReLU()
  )
  (head): Linear(in_features=256, out_features=31, bias=True)
)
torch.Size([2, 3, 32, 32])
ImageClassifier(
  (backbone): ConvNet(
    (features): Sequential(
      (0): Conv2d(3, 128, kernel_size=(3, 3), stride=(1, 1), padding=(1, 1))
      (1): GroupNorm(128, 128, eps=1e-05, affine=True)
      (2): ReLU(inplace=True)
      (3): AvgPool2d(kernel_size=2, stride=2, padding=0)
      (4): Conv2d(128, 128, kernel_size=(3, 3), stride=(1, 1), padding=(1, 1))
      (5): GroupNorm(128, 128, eps=1e-05, affine=True)
      (6): ReLU(inplace=True)
      (7): AvgPool2d(kernel_size=2, stride=2, padding=0)
      (8): Conv2d(128, 128, kernel_size=(3, 3), stride=(1, 1), padding=(1, 1))
      (9): GroupNorm(128, 128, eps=1e-05, affine=True)
      (10): ReLU(inplace=True)
      (11): AvgPool2d(kernel_size=2, stride=2, padding=0)
    )
    (classifier): Linear(in_features=128, out_features=31, bias=True)
  )
  (pool_layer): Sequential(
    (0): AdaptiveAvgPool2d(output_size=(1, 1))
    (1): Flatten(start_dim=1, end_dim=-1)
  )
  (bottleneck): Sequential(
    (0): Linear(in_features=128, out_features=256, bias=True)
    (1): BatchNorm1d(256, eps=1e-05, momentum=0.1, affine=True, track_running_stats=True)
    (2): ReLU()
  )
  (head): Linear(in_features=256, out_features=31, bias=True)
)
torch.Size([2, 3, 32, 32])
ImageClassifier(
  (backbone): ConvNet(
    (features): Sequential(
      (0): Conv2d(3, 128, kernel_size=(3, 3), stride=(1, 1), padding=(1, 1))
      (1): GroupNorm(128, 128, eps=1e-05, affine=True)
      (2): ReLU(inplace=True)
      (3): AvgPool2d(kernel_size=2, stride=2, padding=0)
      (4): Conv2d(128, 128, kernel_size=(3, 3), stride=(1, 1), padding=(1, 1))
      (5): GroupNorm(128, 128, eps=1e-05, affine=True)
      (6): ReLU(inplace=True)
      (7): AvgPool2d(kernel_size=2, stride=2, padding=0)
      (8): Conv2d(128, 128, kernel_size=(3, 3), stride=(1, 1), padding=(1, 1))
      (9): GroupNorm(128, 128, eps=1e-05, affine=True)
      (10): ReLU(inplace=True)
      (11): AvgPool2d(kernel_size=2, stride=2, padding=0)
    )
    (classifier): Linear(in_features=128, out_features=31, bias=True)
  )
  (pool_layer): Sequential(
    (0): AdaptiveAvgPool2d(output_size=(1, 1))
    (1): Flatten(start_dim=1, end_dim=-1)
  )
  (bottleneck): Sequential(
    (0): Linear(in_features=128, out_features=256, bias=True)
    (1): BatchNorm1d(256, eps=1e-05, momentum=0.1, affine=True, track_running_stats=True)
    (2): ReLU()
  )
  (head): Linear(in_features=256, out_features=31, bias=True)
)
torch.Size([2, 3, 32, 32])
ImageClassifier(
  (backbone): ConvNet(
    (features): Sequential(
      (0): Conv2d(3, 128, kernel_size=(3, 3), stride=(1, 1), padding=(1, 1))
      (1): GroupNorm(128, 128, eps=1e-05, affine=True)
      (2): ReLU(inplace=True)
      (3): AvgPool2d(kernel_size=2, stride=2, padding=0)
      (4): Conv2d(128, 128, kernel_size=(3, 3), stride=(1, 1), padding=(1, 1))
      (5): GroupNorm(128, 128, eps=1e-05, affine=True)
      (6): ReLU(inplace=True)
      (7): AvgPool2d(kernel_size=2, stride=2, padding=0)
      (8): Conv2d(128, 128, kernel_size=(3, 3), stride=(1, 1), padding=(1, 1))
      (9): GroupNorm(128, 128, eps=1e-05, affine=True)
      (10): ReLU(inplace=True)
      (11): AvgPool2d(kernel_size=2, stride=2, padding=0)
    )
    (classifier): Linear(in_features=128, out_features=31, bias=True)
  )
  (pool_layer): Sequential(
    (0): AdaptiveAvgPool2d(output_size=(1, 1))
    (1): Flatten(start_dim=1, end_dim=-1)
  )
  (bottleneck): Sequential(
    (0): Linear(in_features=128, out_features=256, bias=True)
    (1): BatchNorm1d(256, eps=1e-05, momentum=0.1, affine=True, track_running_stats=True)
    (2): ReLU()
  )
  (head): Linear(in_features=256, out_features=31, bias=True)
)
torch.Size([2, 3, 32, 32])
ImageClassifier(
  (backbone): ConvNet(
    (features): Sequential(
      (0): Conv2d(3, 128, kernel_size=(3, 3), stride=(1, 1), padding=(1, 1))
      (1): GroupNorm(128, 128, eps=1e-05, affine=True)
      (2): ReLU(inplace=True)
      (3): AvgPool2d(kernel_size=2, stride=2, padding=0)
      (4): Conv2d(128, 128, kernel_size=(3, 3), stride=(1, 1), padding=(1, 1))
      (5): GroupNorm(128, 128, eps=1e-05, affine=True)
      (6): ReLU(inplace=True)
      (7): AvgPool2d(kernel_size=2, stride=2, padding=0)
      (8): Conv2d(128, 128, kernel_size=(3, 3), stride=(1, 1), padding=(1, 1))
      (9): GroupNorm(128, 128, eps=1e-05, affine=True)
      (10): ReLU(inplace=True)
      (11): AvgPool2d(kernel_size=2, stride=2, padding=0)
    )
    (classifier): Linear(in_features=128, out_features=31, bias=True)
  )
  (pool_layer): Sequential(
    (0): AdaptiveAvgPool2d(output_size=(1, 1))
    (1): Flatten(start_dim=1, end_dim=-1)
  )
  (bottleneck): Sequential(
    (0): Linear(in_features=128, out_features=256, bias=True)
    (1): BatchNorm1d(256, eps=1e-05, momentum=0.1, affine=True, track_running_stats=True)
    (2): ReLU()
  )
  (head): Linear(in_features=256, out_features=31, bias=True)
)
torch.Size([2, 3, 32, 32])
ImageClassifier(
  (backbone): ConvNet(
    (features): Sequential(
      (0): Conv2d(3, 128, kernel_size=(3, 3), stride=(1, 1), padding=(1, 1))
      (1): GroupNorm(128, 128, eps=1e-05, affine=True)
      (2): ReLU(inplace=True)
      (3): AvgPool2d(kernel_size=2, stride=2, padding=0)
      (4): Conv2d(128, 128, kernel_size=(3, 3), stride=(1, 1), padding=(1, 1))
      (5): GroupNorm(128, 128, eps=1e-05, affine=True)
      (6): ReLU(inplace=True)
      (7): AvgPool2d(kernel_size=2, stride=2, padding=0)
      (8): Conv2d(128, 128, kernel_size=(3, 3), stride=(1, 1), padding=(1, 1))
      (9): GroupNorm(128, 128, eps=1e-05, affine=True)
      (10): ReLU(inplace=True)
      (11): AvgPool2d(kernel_size=2, stride=2, padding=0)
    )
    (classifier): Linear(in_features=128, out_features=31, bias=True)
  )
  (pool_layer): Sequential(
    (0): AdaptiveAvgPool2d(output_size=(1, 1))
    (1): Flatten(start_dim=1, end_dim=-1)
  )
  (bottleneck): Sequential(
    (0): Linear(in_features=128, out_features=256, bias=True)
    (1): BatchNorm1d(256, eps=1e-05, momentum=0.1, affine=True, track_running_stats=True)
    (2): ReLU()
  )
  (head): Linear(in_features=256, out_features=31, bias=True)
)
torch.Size([2, 3, 32, 32])
ImageClassifier(
  (backbone): ConvNet(
    (features): Sequential(
      (0): Conv2d(3, 128, kernel_size=(3, 3), stride=(1, 1), padding=(1, 1))
      (1): GroupNorm(128, 128, eps=1e-05, affine=True)
      (2): ReLU(inplace=True)
      (3): AvgPool2d(kernel_size=2, stride=2, padding=0)
      (4): Conv2d(128, 128, kernel_size=(3, 3), stride=(1, 1), padding=(1, 1))
      (5): GroupNorm(128, 128, eps=1e-05, affine=True)
      (6): ReLU(inplace=True)
      (7): AvgPool2d(kernel_size=2, stride=2, padding=0)
      (8): Conv2d(128, 128, kernel_size=(3, 3), stride=(1, 1), padding=(1, 1))
      (9): GroupNorm(128, 128, eps=1e-05, affine=True)
      (10): ReLU(inplace=True)
      (11): AvgPool2d(kernel_size=2, stride=2, padding=0)
    )
    (classifier): Linear(in_features=128, out_features=31, bias=True)
  )
  (pool_layer): Sequential(
    (0): AdaptiveAvgPool2d(output_size=(1, 1))
    (1): Flatten(start_dim=1, end_dim=-1)
  )
  (bottleneck): Sequential(
    (0): Linear(in_features=128, out_features=256, bias=True)
    (1): BatchNorm1d(256, eps=1e-05, momentum=0.1, affine=True, track_running_stats=True)
    (2): ReLU()
  )
  (head): Linear(in_features=256, out_features=31, bias=True)
)
torch.Size([2, 3, 32, 32])
ImageClassifier(
  (backbone): ConvNet(
    (features): Sequential(
      (0): Conv2d(3, 128, kernel_size=(3, 3), stride=(1, 1), padding=(1, 1))
      (1): GroupNorm(128, 128, eps=1e-05, affine=True)
      (2): ReLU(inplace=True)
      (3): AvgPool2d(kernel_size=2, stride=2, padding=0)
      (4): Conv2d(128, 128, kernel_size=(3, 3), stride=(1, 1), padding=(1, 1))
      (5): GroupNorm(128, 128, eps=1e-05, affine=True)
      (6): ReLU(inplace=True)
      (7): AvgPool2d(kernel_size=2, stride=2, padding=0)
      (8): Conv2d(128, 128, kernel_size=(3, 3), stride=(1, 1), padding=(1, 1))
      (9): GroupNorm(128, 128, eps=1e-05, affine=True)
      (10): ReLU(inplace=True)
      (11): AvgPool2d(kernel_size=2, stride=2, padding=0)
    )
    (classifier): Linear(in_features=128, out_features=31, bias=True)
  )
  (pool_layer): Sequential(
    (0): AdaptiveAvgPool2d(output_size=(1, 1))
    (1): Flatten(start_dim=1, end_dim=-1)
  )
  (bottleneck): Sequential(
    (0): Linear(in_features=128, out_features=256, bias=True)
    (1): BatchNorm1d(256, eps=1e-05, momentum=0.1, affine=True, track_running_stats=True)
    (2): ReLU()
  )
  (head): Linear(in_features=256, out_features=31, bias=True)
)
torch.Size([2, 3, 32, 32])
ImageClassifier(
  (backbone): ConvNet(
    (features): Sequential(
      (0): Conv2d(3, 128, kernel_size=(3, 3), stride=(1, 1), padding=(1, 1))
      (1): GroupNorm(128, 128, eps=1e-05, affine=True)
      (2): ReLU(inplace=True)
      (3): AvgPool2d(kernel_size=2, stride=2, padding=0)
      (4): Conv2d(128, 128, kernel_size=(3, 3), stride=(1, 1), padding=(1, 1))
      (5): GroupNorm(128, 128, eps=1e-05, affine=True)
      (6): ReLU(inplace=True)
      (7): AvgPool2d(kernel_size=2, stride=2, padding=0)
      (8): Conv2d(128, 128, kernel_size=(3, 3), stride=(1, 1), padding=(1, 1))
      (9): GroupNorm(128, 128, eps=1e-05, affine=True)
      (10): ReLU(inplace=True)
      (11): AvgPool2d(kernel_size=2, stride=2, padding=0)
    )
    (classifier): Linear(in_features=128, out_features=31, bias=True)
  )
  (pool_layer): Sequential(
    (0): AdaptiveAvgPool2d(output_size=(1, 1))
    (1): Flatten(start_dim=1, end_dim=-1)
  )
  (bottleneck): Sequential(
    (0): Linear(in_features=128, out_features=256, bias=True)
    (1): BatchNorm1d(256, eps=1e-05, momentum=0.1, affine=True, track_running_stats=True)
    (2): ReLU()
  )
  (head): Linear(in_features=256, out_features=31, bias=True)
)
torch.Size([2, 3, 32, 32])
ImageClassifier(
  (backbone): ConvNet(
    (features): Sequential(
      (0): Conv2d(3, 128, kernel_size=(3, 3), stride=(1, 1), padding=(1, 1))
      (1): GroupNorm(128, 128, eps=1e-05, affine=True)
      (2): ReLU(inplace=True)
      (3): AvgPool2d(kernel_size=2, stride=2, padding=0)
      (4): Conv2d(128, 128, kernel_size=(3, 3), stride=(1, 1), padding=(1, 1))
      (5): GroupNorm(128, 128, eps=1e-05, affine=True)
      (6): ReLU(inplace=True)
      (7): AvgPool2d(kernel_size=2, stride=2, padding=0)
      (8): Conv2d(128, 128, kernel_size=(3, 3), stride=(1, 1), padding=(1, 1))
      (9): GroupNorm(128, 128, eps=1e-05, affine=True)
      (10): ReLU(inplace=True)
      (11): AvgPool2d(kernel_size=2, stride=2, padding=0)
    )
    (classifier): Linear(in_features=128, out_features=31, bias=True)
  )
  (pool_layer): Sequential(
    (0): AdaptiveAvgPool2d(output_size=(1, 1))
    (1): Flatten(start_dim=1, end_dim=-1)
  )
  (bottleneck): Sequential(
    (0): Linear(in_features=128, out_features=256, bias=True)
    (1): BatchNorm1d(256, eps=1e-05, momentum=0.1, affine=True, track_running_stats=True)
    (2): ReLU()
  )
  (head): Linear(in_features=256, out_features=31, bias=True)
)
torch.Size([2, 3, 32, 32])
ImageClassifier(
  (backbone): ConvNet(
    (features): Sequential(
      (0): Conv2d(3, 128, kernel_size=(3, 3), stride=(1, 1), padding=(1, 1))
      (1): GroupNorm(128, 128, eps=1e-05, affine=True)
      (2): ReLU(inplace=True)
      (3): AvgPool2d(kernel_size=2, stride=2, padding=0)
      (4): Conv2d(128, 128, kernel_size=(3, 3), stride=(1, 1), padding=(1, 1))
      (5): GroupNorm(128, 128, eps=1e-05, affine=True)
      (6): ReLU(inplace=True)
      (7): AvgPool2d(kernel_size=2, stride=2, padding=0)
      (8): Conv2d(128, 128, kernel_size=(3, 3), stride=(1, 1), padding=(1, 1))
      (9): GroupNorm(128, 128, eps=1e-05, affine=True)
      (10): ReLU(inplace=True)
      (11): AvgPool2d(kernel_size=2, stride=2, padding=0)
    )
    (classifier): Linear(in_features=128, out_features=31, bias=True)
  )
  (pool_layer): Sequential(
    (0): AdaptiveAvgPool2d(output_size=(1, 1))
    (1): Flatten(start_dim=1, end_dim=-1)
  )
  (bottleneck): Sequential(
    (0): Linear(in_features=128, out_features=256, bias=True)
    (1): BatchNorm1d(256, eps=1e-05, momentum=0.1, affine=True, track_running_stats=True)
    (2): ReLU()
  )
  (head): Linear(in_features=256, out_features=31, bias=True)
)
torch.Size([2, 3, 32, 32])
ImageClassifier(
  (backbone): ConvNet(
    (features): Sequential(
      (0): Conv2d(3, 128, kernel_size=(3, 3), stride=(1, 1), padding=(1, 1))
      (1): GroupNorm(128, 128, eps=1e-05, affine=True)
      (2): ReLU(inplace=True)
      (3): AvgPool2d(kernel_size=2, stride=2, padding=0)
      (4): Conv2d(128, 128, kernel_size=(3, 3), stride=(1, 1), padding=(1, 1))
      (5): GroupNorm(128, 128, eps=1e-05, affine=True)
      (6): ReLU(inplace=True)
      (7): AvgPool2d(kernel_size=2, stride=2, padding=0)
      (8): Conv2d(128, 128, kernel_size=(3, 3), stride=(1, 1), padding=(1, 1))
      (9): GroupNorm(128, 128, eps=1e-05, affine=True)
      (10): ReLU(inplace=True)
      (11): AvgPool2d(kernel_size=2, stride=2, padding=0)
    )
    (classifier): Linear(in_features=128, out_features=31, bias=True)
  )
  (pool_layer): Sequential(
    (0): AdaptiveAvgPool2d(output_size=(1, 1))
    (1): Flatten(start_dim=1, end_dim=-1)
  )
  (bottleneck): Sequential(
    (0): Linear(in_features=128, out_features=256, bias=True)
    (1): BatchNorm1d(256, eps=1e-05, momentum=0.1, affine=True, track_running_stats=True)
    (2): ReLU()
  )
  (head): Linear(in_features=256, out_features=31, bias=True)
)
torch.Size([2, 3, 32, 32])
ImageClassifier(
  (backbone): ConvNet(
    (features): Sequential(
      (0): Conv2d(3, 128, kernel_size=(3, 3), stride=(1, 1), padding=(1, 1))
      (1): GroupNorm(128, 128, eps=1e-05, affine=True)
      (2): ReLU(inplace=True)
      (3): AvgPool2d(kernel_size=2, stride=2, padding=0)
      (4): Conv2d(128, 128, kernel_size=(3, 3), stride=(1, 1), padding=(1, 1))
      (5): GroupNorm(128, 128, eps=1e-05, affine=True)
      (6): ReLU(inplace=True)
      (7): AvgPool2d(kernel_size=2, stride=2, padding=0)
      (8): Conv2d(128, 128, kernel_size=(3, 3), stride=(1, 1), padding=(1, 1))
      (9): GroupNorm(128, 128, eps=1e-05, affine=True)
      (10): ReLU(inplace=True)
      (11): AvgPool2d(kernel_size=2, stride=2, padding=0)
    )
    (classifier): Linear(in_features=128, out_features=31, bias=True)
  )
  (pool_layer): Sequential(
    (0): AdaptiveAvgPool2d(output_size=(1, 1))
    (1): Flatten(start_dim=1, end_dim=-1)
  )
  (bottleneck): Sequential(
    (0): Linear(in_features=128, out_features=256, bias=True)
    (1): BatchNorm1d(256, eps=1e-05, momentum=0.1, affine=True, track_running_stats=True)
    (2): ReLU()
  )
  (head): Linear(in_features=256, out_features=31, bias=True)
)
torch.Size([2, 3, 32, 32])
ImageClassifier(
  (backbone): ConvNet(
    (features): Sequential(
      (0): Conv2d(3, 128, kernel_size=(3, 3), stride=(1, 1), padding=(1, 1))
      (1): GroupNorm(128, 128, eps=1e-05, affine=True)
      (2): ReLU(inplace=True)
      (3): AvgPool2d(kernel_size=2, stride=2, padding=0)
      (4): Conv2d(128, 128, kernel_size=(3, 3), stride=(1, 1), padding=(1, 1))
      (5): GroupNorm(128, 128, eps=1e-05, affine=True)
      (6): ReLU(inplace=True)
      (7): AvgPool2d(kernel_size=2, stride=2, padding=0)
      (8): Conv2d(128, 128, kernel_size=(3, 3), stride=(1, 1), padding=(1, 1))
      (9): GroupNorm(128, 128, eps=1e-05, affine=True)
      (10): ReLU(inplace=True)
      (11): AvgPool2d(kernel_size=2, stride=2, padding=0)
    )
    (classifier): Linear(in_features=128, out_features=31, bias=True)
  )
  (pool_layer): Sequential(
    (0): AdaptiveAvgPool2d(output_size=(1, 1))
    (1): Flatten(start_dim=1, end_dim=-1)
  )
  (bottleneck): Sequential(
    (0): Linear(in_features=128, out_features=256, bias=True)
    (1): BatchNorm1d(256, eps=1e-05, momentum=0.1, affine=True, track_running_stats=True)
    (2): ReLU()
  )
  (head): Linear(in_features=256, out_features=31, bias=True)
)
torch.Size([2, 3, 32, 32])
ImageClassifier(
  (backbone): ConvNet(
    (features): Sequential(
      (0): Conv2d(3, 128, kernel_size=(3, 3), stride=(1, 1), padding=(1, 1))
      (1): GroupNorm(128, 128, eps=1e-05, affine=True)
      (2): ReLU(inplace=True)
      (3): AvgPool2d(kernel_size=2, stride=2, padding=0)
      (4): Conv2d(128, 128, kernel_size=(3, 3), stride=(1, 1), padding=(1, 1))
      (5): GroupNorm(128, 128, eps=1e-05, affine=True)
      (6): ReLU(inplace=True)
      (7): AvgPool2d(kernel_size=2, stride=2, padding=0)
      (8): Conv2d(128, 128, kernel_size=(3, 3), stride=(1, 1), padding=(1, 1))
      (9): GroupNorm(128, 128, eps=1e-05, affine=True)
      (10): ReLU(inplace=True)
      (11): AvgPool2d(kernel_size=2, stride=2, padding=0)
    )
    (classifier): Linear(in_features=128, out_features=31, bias=True)
  )
  (pool_layer): Sequential(
    (0): AdaptiveAvgPool2d(output_size=(1, 1))
    (1): Flatten(start_dim=1, end_dim=-1)
  )
  (bottleneck): Sequential(
    (0): Linear(in_features=128, out_features=256, bias=True)
    (1): BatchNorm1d(256, eps=1e-05, momentum=0.1, affine=True, track_running_stats=True)
    (2): ReLU()
  )
  (head): Linear(in_features=256, out_features=31, bias=True)
)
torch.Size([2, 3, 32, 32])
ImageClassifier(
  (backbone): ConvNet(
    (features): Sequential(
      (0): Conv2d(3, 128, kernel_size=(3, 3), stride=(1, 1), padding=(1, 1))
      (1): GroupNorm(128, 128, eps=1e-05, affine=True)
      (2): ReLU(inplace=True)
      (3): AvgPool2d(kernel_size=2, stride=2, padding=0)
      (4): Conv2d(128, 128, kernel_size=(3, 3), stride=(1, 1), padding=(1, 1))
      (5): GroupNorm(128, 128, eps=1e-05, affine=True)
      (6): ReLU(inplace=True)
      (7): AvgPool2d(kernel_size=2, stride=2, padding=0)
      (8): Conv2d(128, 128, kernel_size=(3, 3), stride=(1, 1), padding=(1, 1))
      (9): GroupNorm(128, 128, eps=1e-05, affine=True)
      (10): ReLU(inplace=True)
      (11): AvgPool2d(kernel_size=2, stride=2, padding=0)
    )
    (classifier): Linear(in_features=128, out_features=31, bias=True)
  )
  (pool_layer): Sequential(
    (0): AdaptiveAvgPool2d(output_size=(1, 1))
    (1): Flatten(start_dim=1, end_dim=-1)
  )
  (bottleneck): Sequential(
    (0): Linear(in_features=128, out_features=256, bias=True)
    (1): BatchNorm1d(256, eps=1e-05, momentum=0.1, affine=True, track_running_stats=True)
    (2): ReLU()
  )
  (head): Linear(in_features=256, out_features=31, bias=True)
)
torch.Size([2, 3, 32, 32])
ImageClassifier(
  (backbone): ConvNet(
    (features): Sequential(
      (0): Conv2d(3, 128, kernel_size=(3, 3), stride=(1, 1), padding=(1, 1))
      (1): GroupNorm(128, 128, eps=1e-05, affine=True)
      (2): ReLU(inplace=True)
      (3): AvgPool2d(kernel_size=2, stride=2, padding=0)
      (4): Conv2d(128, 128, kernel_size=(3, 3), stride=(1, 1), padding=(1, 1))
      (5): GroupNorm(128, 128, eps=1e-05, affine=True)
      (6): ReLU(inplace=True)
      (7): AvgPool2d(kernel_size=2, stride=2, padding=0)
      (8): Conv2d(128, 128, kernel_size=(3, 3), stride=(1, 1), padding=(1, 1))
      (9): GroupNorm(128, 128, eps=1e-05, affine=True)
      (10): ReLU(inplace=True)
      (11): AvgPool2d(kernel_size=2, stride=2, padding=0)
    )
    (classifier): Linear(in_features=128, out_features=31, bias=True)
  )
  (pool_layer): Sequential(
    (0): AdaptiveAvgPool2d(output_size=(1, 1))
    (1): Flatten(start_dim=1, end_dim=-1)
  )
  (bottleneck): Sequential(
    (0): Linear(in_features=128, out_features=256, bias=True)
    (1): BatchNorm1d(256, eps=1e-05, momentum=0.1, affine=True, track_running_stats=True)
    (2): ReLU()
  )
  (head): Linear(in_features=256, out_features=31, bias=True)
)
torch.Size([2, 3, 32, 32])
ImageClassifier(
  (backbone): ConvNet(
    (features): Sequential(
      (0): Conv2d(3, 128, kernel_size=(3, 3), stride=(1, 1), padding=(1, 1))
      (1): GroupNorm(128, 128, eps=1e-05, affine=True)
      (2): ReLU(inplace=True)
      (3): AvgPool2d(kernel_size=2, stride=2, padding=0)
      (4): Conv2d(128, 128, kernel_size=(3, 3), stride=(1, 1), padding=(1, 1))
      (5): GroupNorm(128, 128, eps=1e-05, affine=True)
      (6): ReLU(inplace=True)
      (7): AvgPool2d(kernel_size=2, stride=2, padding=0)
      (8): Conv2d(128, 128, kernel_size=(3, 3), stride=(1, 1), padding=(1, 1))
      (9): GroupNorm(128, 128, eps=1e-05, affine=True)
      (10): ReLU(inplace=True)
      (11): AvgPool2d(kernel_size=2, stride=2, padding=0)
    )
    (classifier): Linear(in_features=128, out_features=31, bias=True)
  )
  (pool_layer): Sequential(
    (0): AdaptiveAvgPool2d(output_size=(1, 1))
    (1): Flatten(start_dim=1, end_dim=-1)
  )
  (bottleneck): Sequential(
    (0): Linear(in_features=128, out_features=256, bias=True)
    (1): BatchNorm1d(256, eps=1e-05, momentum=0.1, affine=True, track_running_stats=True)
    (2): ReLU()
  )
  (head): Linear(in_features=256, out_features=31, bias=True)
)
torch.Size([2, 3, 32, 32])
ImageClassifier(
  (backbone): ConvNet(
    (features): Sequential(
      (0): Conv2d(3, 128, kernel_size=(3, 3), stride=(1, 1), padding=(1, 1))
      (1): GroupNorm(128, 128, eps=1e-05, affine=True)
      (2): ReLU(inplace=True)
      (3): AvgPool2d(kernel_size=2, stride=2, padding=0)
      (4): Conv2d(128, 128, kernel_size=(3, 3), stride=(1, 1), padding=(1, 1))
      (5): GroupNorm(128, 128, eps=1e-05, affine=True)
      (6): ReLU(inplace=True)
      (7): AvgPool2d(kernel_size=2, stride=2, padding=0)
      (8): Conv2d(128, 128, kernel_size=(3, 3), stride=(1, 1), padding=(1, 1))
      (9): GroupNorm(128, 128, eps=1e-05, affine=True)
      (10): ReLU(inplace=True)
      (11): AvgPool2d(kernel_size=2, stride=2, padding=0)
    )
    (classifier): Linear(in_features=128, out_features=31, bias=True)
  )
  (pool_layer): Sequential(
    (0): AdaptiveAvgPool2d(output_size=(1, 1))
    (1): Flatten(start_dim=1, end_dim=-1)
  )
  (bottleneck): Sequential(
    (0): Linear(in_features=128, out_features=256, bias=True)
    (1): BatchNorm1d(256, eps=1e-05, momentum=0.1, affine=True, track_running_stats=True)
    (2): ReLU()
  )
  (head): Linear(in_features=256, out_features=31, bias=True)
)
torch.Size([2, 3, 32, 32])
ImageClassifier(
  (backbone): ConvNet(
    (features): Sequential(
      (0): Conv2d(3, 128, kernel_size=(3, 3), stride=(1, 1), padding=(1, 1))
      (1): GroupNorm(128, 128, eps=1e-05, affine=True)
      (2): ReLU(inplace=True)
      (3): AvgPool2d(kernel_size=2, stride=2, padding=0)
      (4): Conv2d(128, 128, kernel_size=(3, 3), stride=(1, 1), padding=(1, 1))
      (5): GroupNorm(128, 128, eps=1e-05, affine=True)
      (6): ReLU(inplace=True)
      (7): AvgPool2d(kernel_size=2, stride=2, padding=0)
      (8): Conv2d(128, 128, kernel_size=(3, 3), stride=(1, 1), padding=(1, 1))
      (9): GroupNorm(128, 128, eps=1e-05, affine=True)
      (10): ReLU(inplace=True)
      (11): AvgPool2d(kernel_size=2, stride=2, padding=0)
    )
    (classifier): Linear(in_features=128, out_features=31, bias=True)
  )
  (pool_layer): Sequential(
    (0): AdaptiveAvgPool2d(output_size=(1, 1))
    (1): Flatten(start_dim=1, end_dim=-1)
  )
  (bottleneck): Sequential(
    (0): Linear(in_features=128, out_features=256, bias=True)
    (1): BatchNorm1d(256, eps=1e-05, momentum=0.1, affine=True, track_running_stats=True)
    (2): ReLU()
  )
  (head): Linear(in_features=256, out_features=31, bias=True)
)
torch.Size([2, 3, 32, 32])
ImageClassifier(
  (backbone): ConvNet(
    (features): Sequential(
      (0): Conv2d(3, 128, kernel_size=(3, 3), stride=(1, 1), padding=(1, 1))
      (1): GroupNorm(128, 128, eps=1e-05, affine=True)
      (2): ReLU(inplace=True)
      (3): AvgPool2d(kernel_size=2, stride=2, padding=0)
      (4): Conv2d(128, 128, kernel_size=(3, 3), stride=(1, 1), padding=(1, 1))
      (5): GroupNorm(128, 128, eps=1e-05, affine=True)
      (6): ReLU(inplace=True)
      (7): AvgPool2d(kernel_size=2, stride=2, padding=0)
      (8): Conv2d(128, 128, kernel_size=(3, 3), stride=(1, 1), padding=(1, 1))
      (9): GroupNorm(128, 128, eps=1e-05, affine=True)
      (10): ReLU(inplace=True)
      (11): AvgPool2d(kernel_size=2, stride=2, padding=0)
    )
    (classifier): Linear(in_features=128, out_features=31, bias=True)
  )
  (pool_layer): Sequential(
    (0): AdaptiveAvgPool2d(output_size=(1, 1))
    (1): Flatten(start_dim=1, end_dim=-1)
  )
  (bottleneck): Sequential(
    (0): Linear(in_features=128, out_features=256, bias=True)
    (1): BatchNorm1d(256, eps=1e-05, momentum=0.1, affine=True, track_running_stats=True)
    (2): ReLU()
  )
  (head): Linear(in_features=256, out_features=31, bias=True)
)
torch.Size([2, 3, 32, 32])
ImageClassifier(
  (backbone): ConvNet(
    (features): Sequential(
      (0): Conv2d(3, 128, kernel_size=(3, 3), stride=(1, 1), padding=(1, 1))
      (1): GroupNorm(128, 128, eps=1e-05, affine=True)
      (2): ReLU(inplace=True)
      (3): AvgPool2d(kernel_size=2, stride=2, padding=0)
      (4): Conv2d(128, 128, kernel_size=(3, 3), stride=(1, 1), padding=(1, 1))
      (5): GroupNorm(128, 128, eps=1e-05, affine=True)
      (6): ReLU(inplace=True)
      (7): AvgPool2d(kernel_size=2, stride=2, padding=0)
      (8): Conv2d(128, 128, kernel_size=(3, 3), stride=(1, 1), padding=(1, 1))
      (9): GroupNorm(128, 128, eps=1e-05, affine=True)
      (10): ReLU(inplace=True)
      (11): AvgPool2d(kernel_size=2, stride=2, padding=0)
    )
    (classifier): Linear(in_features=128, out_features=31, bias=True)
  )
  (pool_layer): Sequential(
    (0): AdaptiveAvgPool2d(output_size=(1, 1))
    (1): Flatten(start_dim=1, end_dim=-1)
  )
  (bottleneck): Sequential(
    (0): Linear(in_features=128, out_features=256, bias=True)
    (1): BatchNorm1d(256, eps=1e-05, momentum=0.1, affine=True, track_running_stats=True)
    (2): ReLU()
  )
  (head): Linear(in_features=256, out_features=31, bias=True)
)
torch.Size([2, 3, 32, 32])
ImageClassifier(
  (backbone): ConvNet(
    (features): Sequential(
      (0): Conv2d(3, 128, kernel_size=(3, 3), stride=(1, 1), padding=(1, 1))
      (1): GroupNorm(128, 128, eps=1e-05, affine=True)
      (2): ReLU(inplace=True)
      (3): AvgPool2d(kernel_size=2, stride=2, padding=0)
      (4): Conv2d(128, 128, kernel_size=(3, 3), stride=(1, 1), padding=(1, 1))
      (5): GroupNorm(128, 128, eps=1e-05, affine=True)
      (6): ReLU(inplace=True)
      (7): AvgPool2d(kernel_size=2, stride=2, padding=0)
      (8): Conv2d(128, 128, kernel_size=(3, 3), stride=(1, 1), padding=(1, 1))
      (9): GroupNorm(128, 128, eps=1e-05, affine=True)
      (10): ReLU(inplace=True)
      (11): AvgPool2d(kernel_size=2, stride=2, padding=0)
    )
    (classifier): Linear(in_features=128, out_features=31, bias=True)
  )
  (pool_layer): Sequential(
    (0): AdaptiveAvgPool2d(output_size=(1, 1))
    (1): Flatten(start_dim=1, end_dim=-1)
  )
  (bottleneck): Sequential(
    (0): Linear(in_features=128, out_features=256, bias=True)
    (1): BatchNorm1d(256, eps=1e-05, momentum=0.1, affine=True, track_running_stats=True)
    (2): ReLU()
  )
  (head): Linear(in_features=256, out_features=31, bias=True)
)
torch.Size([2, 3, 32, 32])
ImageClassifier(
  (backbone): ConvNet(
    (features): Sequential(
      (0): Conv2d(3, 128, kernel_size=(3, 3), stride=(1, 1), padding=(1, 1))
      (1): GroupNorm(128, 128, eps=1e-05, affine=True)
      (2): ReLU(inplace=True)
      (3): AvgPool2d(kernel_size=2, stride=2, padding=0)
      (4): Conv2d(128, 128, kernel_size=(3, 3), stride=(1, 1), padding=(1, 1))
      (5): GroupNorm(128, 128, eps=1e-05, affine=True)
      (6): ReLU(inplace=True)
      (7): AvgPool2d(kernel_size=2, stride=2, padding=0)
      (8): Conv2d(128, 128, kernel_size=(3, 3), stride=(1, 1), padding=(1, 1))
      (9): GroupNorm(128, 128, eps=1e-05, affine=True)
      (10): ReLU(inplace=True)
      (11): AvgPool2d(kernel_size=2, stride=2, padding=0)
    )
    (classifier): Linear(in_features=128, out_features=31, bias=True)
  )
  (pool_layer): Sequential(
    (0): AdaptiveAvgPool2d(output_size=(1, 1))
    (1): Flatten(start_dim=1, end_dim=-1)
  )
  (bottleneck): Sequential(
    (0): Linear(in_features=128, out_features=256, bias=True)
    (1): BatchNorm1d(256, eps=1e-05, momentum=0.1, affine=True, track_running_stats=True)
    (2): ReLU()
  )
  (head): Linear(in_features=256, out_features=31, bias=True)
)
torch.Size([2, 3, 32, 32])
ImageClassifier(
  (backbone): ConvNet(
    (features): Sequential(
      (0): Conv2d(3, 128, kernel_size=(3, 3), stride=(1, 1), padding=(1, 1))
      (1): GroupNorm(128, 128, eps=1e-05, affine=True)
      (2): ReLU(inplace=True)
      (3): AvgPool2d(kernel_size=2, stride=2, padding=0)
      (4): Conv2d(128, 128, kernel_size=(3, 3), stride=(1, 1), padding=(1, 1))
      (5): GroupNorm(128, 128, eps=1e-05, affine=True)
      (6): ReLU(inplace=True)
      (7): AvgPool2d(kernel_size=2, stride=2, padding=0)
      (8): Conv2d(128, 128, kernel_size=(3, 3), stride=(1, 1), padding=(1, 1))
      (9): GroupNorm(128, 128, eps=1e-05, affine=True)
      (10): ReLU(inplace=True)
      (11): AvgPool2d(kernel_size=2, stride=2, padding=0)
    )
    (classifier): Linear(in_features=128, out_features=31, bias=True)
  )
  (pool_layer): Sequential(
    (0): AdaptiveAvgPool2d(output_size=(1, 1))
    (1): Flatten(start_dim=1, end_dim=-1)
  )
  (bottleneck): Sequential(
    (0): Linear(in_features=128, out_features=256, bias=True)
    (1): BatchNorm1d(256, eps=1e-05, momentum=0.1, affine=True, track_running_stats=True)
    (2): ReLU()
  )
  (head): Linear(in_features=256, out_features=31, bias=True)
)
torch.Size([2, 3, 32, 32])
ImageClassifier(
  (backbone): ConvNet(
    (features): Sequential(
      (0): Conv2d(3, 128, kernel_size=(3, 3), stride=(1, 1), padding=(1, 1))
      (1): GroupNorm(128, 128, eps=1e-05, affine=True)
      (2): ReLU(inplace=True)
      (3): AvgPool2d(kernel_size=2, stride=2, padding=0)
      (4): Conv2d(128, 128, kernel_size=(3, 3), stride=(1, 1), padding=(1, 1))
      (5): GroupNorm(128, 128, eps=1e-05, affine=True)
      (6): ReLU(inplace=True)
      (7): AvgPool2d(kernel_size=2, stride=2, padding=0)
      (8): Conv2d(128, 128, kernel_size=(3, 3), stride=(1, 1), padding=(1, 1))
      (9): GroupNorm(128, 128, eps=1e-05, affine=True)
      (10): ReLU(inplace=True)
      (11): AvgPool2d(kernel_size=2, stride=2, padding=0)
    )
    (classifier): Linear(in_features=128, out_features=31, bias=True)
  )
  (pool_layer): Sequential(
    (0): AdaptiveAvgPool2d(output_size=(1, 1))
    (1): Flatten(start_dim=1, end_dim=-1)
  )
  (bottleneck): Sequential(
    (0): Linear(in_features=128, out_features=256, bias=True)
    (1): BatchNorm1d(256, eps=1e-05, momentum=0.1, affine=True, track_running_stats=True)
    (2): ReLU()
  )
  (head): Linear(in_features=256, out_features=31, bias=True)
)
torch.Size([2, 3, 32, 32])
ImageClassifier(
  (backbone): ConvNet(
    (features): Sequential(
      (0): Conv2d(3, 128, kernel_size=(3, 3), stride=(1, 1), padding=(1, 1))
      (1): GroupNorm(128, 128, eps=1e-05, affine=True)
      (2): ReLU(inplace=True)
      (3): AvgPool2d(kernel_size=2, stride=2, padding=0)
      (4): Conv2d(128, 128, kernel_size=(3, 3), stride=(1, 1), padding=(1, 1))
      (5): GroupNorm(128, 128, eps=1e-05, affine=True)
      (6): ReLU(inplace=True)
      (7): AvgPool2d(kernel_size=2, stride=2, padding=0)
      (8): Conv2d(128, 128, kernel_size=(3, 3), stride=(1, 1), padding=(1, 1))
      (9): GroupNorm(128, 128, eps=1e-05, affine=True)
      (10): ReLU(inplace=True)
      (11): AvgPool2d(kernel_size=2, stride=2, padding=0)
    )
    (classifier): Linear(in_features=128, out_features=31, bias=True)
  )
  (pool_layer): Sequential(
    (0): AdaptiveAvgPool2d(output_size=(1, 1))
    (1): Flatten(start_dim=1, end_dim=-1)
  )
  (bottleneck): Sequential(
    (0): Linear(in_features=128, out_features=256, bias=True)
    (1): BatchNorm1d(256, eps=1e-05, momentum=0.1, affine=True, track_running_stats=True)
    (2): ReLU()
  )
  (head): Linear(in_features=256, out_features=31, bias=True)
)
torch.Size([2, 3, 32, 32])
ImageClassifier(
  (backbone): ConvNet(
    (features): Sequential(
      (0): Conv2d(3, 128, kernel_size=(3, 3), stride=(1, 1), padding=(1, 1))
      (1): GroupNorm(128, 128, eps=1e-05, affine=True)
      (2): ReLU(inplace=True)
      (3): AvgPool2d(kernel_size=2, stride=2, padding=0)
      (4): Conv2d(128, 128, kernel_size=(3, 3), stride=(1, 1), padding=(1, 1))
      (5): GroupNorm(128, 128, eps=1e-05, affine=True)
      (6): ReLU(inplace=True)
      (7): AvgPool2d(kernel_size=2, stride=2, padding=0)
      (8): Conv2d(128, 128, kernel_size=(3, 3), stride=(1, 1), padding=(1, 1))
      (9): GroupNorm(128, 128, eps=1e-05, affine=True)
      (10): ReLU(inplace=True)
      (11): AvgPool2d(kernel_size=2, stride=2, padding=0)
    )
    (classifier): Linear(in_features=128, out_features=31, bias=True)
  )
  (pool_layer): Sequential(
    (0): AdaptiveAvgPool2d(output_size=(1, 1))
    (1): Flatten(start_dim=1, end_dim=-1)
  )
  (bottleneck): Sequential(
    (0): Linear(in_features=128, out_features=256, bias=True)
    (1): BatchNorm1d(256, eps=1e-05, momentum=0.1, affine=True, track_running_stats=True)
    (2): ReLU()
  )
  (head): Linear(in_features=256, out_features=31, bias=True)
)
torch.Size([2, 3, 32, 32])
ImageClassifier(
  (backbone): ConvNet(
    (features): Sequential(
      (0): Conv2d(3, 128, kernel_size=(3, 3), stride=(1, 1), padding=(1, 1))
      (1): GroupNorm(128, 128, eps=1e-05, affine=True)
      (2): ReLU(inplace=True)
      (3): AvgPool2d(kernel_size=2, stride=2, padding=0)
      (4): Conv2d(128, 128, kernel_size=(3, 3), stride=(1, 1), padding=(1, 1))
      (5): GroupNorm(128, 128, eps=1e-05, affine=True)
      (6): ReLU(inplace=True)
      (7): AvgPool2d(kernel_size=2, stride=2, padding=0)
      (8): Conv2d(128, 128, kernel_size=(3, 3), stride=(1, 1), padding=(1, 1))
      (9): GroupNorm(128, 128, eps=1e-05, affine=True)
      (10): ReLU(inplace=True)
      (11): AvgPool2d(kernel_size=2, stride=2, padding=0)
    )
    (classifier): Linear(in_features=128, out_features=31, bias=True)
  )
  (pool_layer): Sequential(
    (0): AdaptiveAvgPool2d(output_size=(1, 1))
    (1): Flatten(start_dim=1, end_dim=-1)
  )
  (bottleneck): Sequential(
    (0): Linear(in_features=128, out_features=256, bias=True)
    (1): BatchNorm1d(256, eps=1e-05, momentum=0.1, affine=True, track_running_stats=True)
    (2): ReLU()
  )
  (head): Linear(in_features=256, out_features=31, bias=True)
)
torch.Size([2, 3, 32, 32])
ImageClassifier(
  (backbone): ConvNet(
    (features): Sequential(
      (0): Conv2d(3, 128, kernel_size=(3, 3), stride=(1, 1), padding=(1, 1))
      (1): GroupNorm(128, 128, eps=1e-05, affine=True)
      (2): ReLU(inplace=True)
      (3): AvgPool2d(kernel_size=2, stride=2, padding=0)
      (4): Conv2d(128, 128, kernel_size=(3, 3), stride=(1, 1), padding=(1, 1))
      (5): GroupNorm(128, 128, eps=1e-05, affine=True)
      (6): ReLU(inplace=True)
      (7): AvgPool2d(kernel_size=2, stride=2, padding=0)
      (8): Conv2d(128, 128, kernel_size=(3, 3), stride=(1, 1), padding=(1, 1))
      (9): GroupNorm(128, 128, eps=1e-05, affine=True)
      (10): ReLU(inplace=True)
      (11): AvgPool2d(kernel_size=2, stride=2, padding=0)
    )
    (classifier): Linear(in_features=128, out_features=31, bias=True)
  )
  (pool_layer): Sequential(
    (0): AdaptiveAvgPool2d(output_size=(1, 1))
    (1): Flatten(start_dim=1, end_dim=-1)
  )
  (bottleneck): Sequential(
    (0): Linear(in_features=128, out_features=256, bias=True)
    (1): BatchNorm1d(256, eps=1e-05, momentum=0.1, affine=True, track_running_stats=True)
    (2): ReLU()
  )
  (head): Linear(in_features=256, out_features=31, bias=True)
)
torch.Size([2, 3, 32, 32])
ImageClassifier(
  (backbone): ConvNet(
    (features): Sequential(
      (0): Conv2d(3, 128, kernel_size=(3, 3), stride=(1, 1), padding=(1, 1))
      (1): GroupNorm(128, 128, eps=1e-05, affine=True)
      (2): ReLU(inplace=True)
      (3): AvgPool2d(kernel_size=2, stride=2, padding=0)
      (4): Conv2d(128, 128, kernel_size=(3, 3), stride=(1, 1), padding=(1, 1))
      (5): GroupNorm(128, 128, eps=1e-05, affine=True)
      (6): ReLU(inplace=True)
      (7): AvgPool2d(kernel_size=2, stride=2, padding=0)
      (8): Conv2d(128, 128, kernel_size=(3, 3), stride=(1, 1), padding=(1, 1))
      (9): GroupNorm(128, 128, eps=1e-05, affine=True)
      (10): ReLU(inplace=True)
      (11): AvgPool2d(kernel_size=2, stride=2, padding=0)
    )
    (classifier): Linear(in_features=128, out_features=31, bias=True)
  )
  (pool_layer): Sequential(
    (0): AdaptiveAvgPool2d(output_size=(1, 1))
    (1): Flatten(start_dim=1, end_dim=-1)
  )
  (bottleneck): Sequential(
    (0): Linear(in_features=128, out_features=256, bias=True)
    (1): BatchNorm1d(256, eps=1e-05, momentum=0.1, affine=True, track_running_stats=True)
    (2): ReLU()
  )
  (head): Linear(in_features=256, out_features=31, bias=True)
)
torch.Size([2, 3, 32, 32])
ImageClassifier(
  (backbone): ConvNet(
    (features): Sequential(
      (0): Conv2d(3, 128, kernel_size=(3, 3), stride=(1, 1), padding=(1, 1))
      (1): GroupNorm(128, 128, eps=1e-05, affine=True)
      (2): ReLU(inplace=True)
      (3): AvgPool2d(kernel_size=2, stride=2, padding=0)
      (4): Conv2d(128, 128, kernel_size=(3, 3), stride=(1, 1), padding=(1, 1))
      (5): GroupNorm(128, 128, eps=1e-05, affine=True)
      (6): ReLU(inplace=True)
      (7): AvgPool2d(kernel_size=2, stride=2, padding=0)
      (8): Conv2d(128, 128, kernel_size=(3, 3), stride=(1, 1), padding=(1, 1))
      (9): GroupNorm(128, 128, eps=1e-05, affine=True)
      (10): ReLU(inplace=True)
      (11): AvgPool2d(kernel_size=2, stride=2, padding=0)
    )
    (classifier): Linear(in_features=128, out_features=31, bias=True)
  )
  (pool_layer): Sequential(
    (0): AdaptiveAvgPool2d(output_size=(1, 1))
    (1): Flatten(start_dim=1, end_dim=-1)
  )
  (bottleneck): Sequential(
    (0): Linear(in_features=128, out_features=256, bias=True)
    (1): BatchNorm1d(256, eps=1e-05, momentum=0.1, affine=True, track_running_stats=True)
    (2): ReLU()
  )
  (head): Linear(in_features=256, out_features=31, bias=True)
)
torch.Size([2, 3, 32, 32])
ImageClassifier(
  (backbone): ConvNet(
    (features): Sequential(
      (0): Conv2d(3, 128, kernel_size=(3, 3), stride=(1, 1), padding=(1, 1))
      (1): GroupNorm(128, 128, eps=1e-05, affine=True)
      (2): ReLU(inplace=True)
      (3): AvgPool2d(kernel_size=2, stride=2, padding=0)
      (4): Conv2d(128, 128, kernel_size=(3, 3), stride=(1, 1), padding=(1, 1))
      (5): GroupNorm(128, 128, eps=1e-05, affine=True)
      (6): ReLU(inplace=True)
      (7): AvgPool2d(kernel_size=2, stride=2, padding=0)
      (8): Conv2d(128, 128, kernel_size=(3, 3), stride=(1, 1), padding=(1, 1))
      (9): GroupNorm(128, 128, eps=1e-05, affine=True)
      (10): ReLU(inplace=True)
      (11): AvgPool2d(kernel_size=2, stride=2, padding=0)
    )
    (classifier): Linear(in_features=128, out_features=31, bias=True)
  )
  (pool_layer): Sequential(
    (0): AdaptiveAvgPool2d(output_size=(1, 1))
    (1): Flatten(start_dim=1, end_dim=-1)
  )
  (bottleneck): Sequential(
    (0): Linear(in_features=128, out_features=256, bias=True)
    (1): BatchNorm1d(256, eps=1e-05, momentum=0.1, affine=True, track_running_stats=True)
    (2): ReLU()
  )
  (head): Linear(in_features=256, out_features=31, bias=True)
)
torch.Size([2, 3, 32, 32])
ImageClassifier(
  (backbone): ConvNet(
    (features): Sequential(
      (0): Conv2d(3, 128, kernel_size=(3, 3), stride=(1, 1), padding=(1, 1))
      (1): GroupNorm(128, 128, eps=1e-05, affine=True)
      (2): ReLU(inplace=True)
      (3): AvgPool2d(kernel_size=2, stride=2, padding=0)
      (4): Conv2d(128, 128, kernel_size=(3, 3), stride=(1, 1), padding=(1, 1))
      (5): GroupNorm(128, 128, eps=1e-05, affine=True)
      (6): ReLU(inplace=True)
      (7): AvgPool2d(kernel_size=2, stride=2, padding=0)
      (8): Conv2d(128, 128, kernel_size=(3, 3), stride=(1, 1), padding=(1, 1))
      (9): GroupNorm(128, 128, eps=1e-05, affine=True)
      (10): ReLU(inplace=True)
      (11): AvgPool2d(kernel_size=2, stride=2, padding=0)
    )
    (classifier): Linear(in_features=128, out_features=31, bias=True)
  )
  (pool_layer): Sequential(
    (0): AdaptiveAvgPool2d(output_size=(1, 1))
    (1): Flatten(start_dim=1, end_dim=-1)
  )
  (bottleneck): Sequential(
    (0): Linear(in_features=128, out_features=256, bias=True)
    (1): BatchNorm1d(256, eps=1e-05, momentum=0.1, affine=True, track_running_stats=True)
    (2): ReLU()
  )
  (head): Linear(in_features=256, out_features=31, bias=True)
)
torch.Size([2, 3, 32, 32])
ImageClassifier(
  (backbone): ConvNet(
    (features): Sequential(
      (0): Conv2d(3, 128, kernel_size=(3, 3), stride=(1, 1), padding=(1, 1))
      (1): GroupNorm(128, 128, eps=1e-05, affine=True)
      (2): ReLU(inplace=True)
      (3): AvgPool2d(kernel_size=2, stride=2, padding=0)
      (4): Conv2d(128, 128, kernel_size=(3, 3), stride=(1, 1), padding=(1, 1))
      (5): GroupNorm(128, 128, eps=1e-05, affine=True)
      (6): ReLU(inplace=True)
      (7): AvgPool2d(kernel_size=2, stride=2, padding=0)
      (8): Conv2d(128, 128, kernel_size=(3, 3), stride=(1, 1), padding=(1, 1))
      (9): GroupNorm(128, 128, eps=1e-05, affine=True)
      (10): ReLU(inplace=True)
      (11): AvgPool2d(kernel_size=2, stride=2, padding=0)
    )
    (classifier): Linear(in_features=128, out_features=31, bias=True)
  )
  (pool_layer): Sequential(
    (0): AdaptiveAvgPool2d(output_size=(1, 1))
    (1): Flatten(start_dim=1, end_dim=-1)
  )
  (bottleneck): Sequential(
    (0): Linear(in_features=128, out_features=256, bias=True)
    (1): BatchNorm1d(256, eps=1e-05, momentum=0.1, affine=True, track_running_stats=True)
    (2): ReLU()
  )
  (head): Linear(in_features=256, out_features=31, bias=True)
)
torch.Size([2, 3, 32, 32])
ImageClassifier(
  (backbone): ConvNet(
    (features): Sequential(
      (0): Conv2d(3, 128, kernel_size=(3, 3), stride=(1, 1), padding=(1, 1))
      (1): GroupNorm(128, 128, eps=1e-05, affine=True)
      (2): ReLU(inplace=True)
      (3): AvgPool2d(kernel_size=2, stride=2, padding=0)
      (4): Conv2d(128, 128, kernel_size=(3, 3), stride=(1, 1), padding=(1, 1))
      (5): GroupNorm(128, 128, eps=1e-05, affine=True)
      (6): ReLU(inplace=True)
      (7): AvgPool2d(kernel_size=2, stride=2, padding=0)
      (8): Conv2d(128, 128, kernel_size=(3, 3), stride=(1, 1), padding=(1, 1))
      (9): GroupNorm(128, 128, eps=1e-05, affine=True)
      (10): ReLU(inplace=True)
      (11): AvgPool2d(kernel_size=2, stride=2, padding=0)
    )
    (classifier): Linear(in_features=128, out_features=31, bias=True)
  )
  (pool_layer): Sequential(
    (0): AdaptiveAvgPool2d(output_size=(1, 1))
    (1): Flatten(start_dim=1, end_dim=-1)
  )
  (bottleneck): Sequential(
    (0): Linear(in_features=128, out_features=256, bias=True)
    (1): BatchNorm1d(256, eps=1e-05, momentum=0.1, affine=True, track_running_stats=True)
    (2): ReLU()
  )
  (head): Linear(in_features=256, out_features=31, bias=True)
)
torch.Size([2, 3, 32, 32])
ImageClassifier(
  (backbone): ConvNet(
    (features): Sequential(
      (0): Conv2d(3, 128, kernel_size=(3, 3), stride=(1, 1), padding=(1, 1))
      (1): GroupNorm(128, 128, eps=1e-05, affine=True)
      (2): ReLU(inplace=True)
      (3): AvgPool2d(kernel_size=2, stride=2, padding=0)
      (4): Conv2d(128, 128, kernel_size=(3, 3), stride=(1, 1), padding=(1, 1))
      (5): GroupNorm(128, 128, eps=1e-05, affine=True)
      (6): ReLU(inplace=True)
      (7): AvgPool2d(kernel_size=2, stride=2, padding=0)
      (8): Conv2d(128, 128, kernel_size=(3, 3), stride=(1, 1), padding=(1, 1))
      (9): GroupNorm(128, 128, eps=1e-05, affine=True)
      (10): ReLU(inplace=True)
      (11): AvgPool2d(kernel_size=2, stride=2, padding=0)
    )
    (classifier): Linear(in_features=128, out_features=31, bias=True)
  )
  (pool_layer): Sequential(
    (0): AdaptiveAvgPool2d(output_size=(1, 1))
    (1): Flatten(start_dim=1, end_dim=-1)
  )
  (bottleneck): Sequential(
    (0): Linear(in_features=128, out_features=256, bias=True)
    (1): BatchNorm1d(256, eps=1e-05, momentum=0.1, affine=True, track_running_stats=True)
    (2): ReLU()
  )
  (head): Linear(in_features=256, out_features=31, bias=True)
)
torch.Size([2, 3, 32, 32])
ImageClassifier(
  (backbone): ConvNet(
    (features): Sequential(
      (0): Conv2d(3, 128, kernel_size=(3, 3), stride=(1, 1), padding=(1, 1))
      (1): GroupNorm(128, 128, eps=1e-05, affine=True)
      (2): ReLU(inplace=True)
      (3): AvgPool2d(kernel_size=2, stride=2, padding=0)
      (4): Conv2d(128, 128, kernel_size=(3, 3), stride=(1, 1), padding=(1, 1))
      (5): GroupNorm(128, 128, eps=1e-05, affine=True)
      (6): ReLU(inplace=True)
      (7): AvgPool2d(kernel_size=2, stride=2, padding=0)
      (8): Conv2d(128, 128, kernel_size=(3, 3), stride=(1, 1), padding=(1, 1))
      (9): GroupNorm(128, 128, eps=1e-05, affine=True)
      (10): ReLU(inplace=True)
      (11): AvgPool2d(kernel_size=2, stride=2, padding=0)
    )
    (classifier): Linear(in_features=128, out_features=31, bias=True)
  )
  (pool_layer): Sequential(
    (0): AdaptiveAvgPool2d(output_size=(1, 1))
    (1): Flatten(start_dim=1, end_dim=-1)
  )
  (bottleneck): Sequential(
    (0): Linear(in_features=128, out_features=256, bias=True)
    (1): BatchNorm1d(256, eps=1e-05, momentum=0.1, affine=True, track_running_stats=True)
    (2): ReLU()
  )
  (head): Linear(in_features=256, out_features=31, bias=True)
)
torch.Size([2, 3, 32, 32])
ImageClassifier(
  (backbone): ConvNet(
    (features): Sequential(
      (0): Conv2d(3, 128, kernel_size=(3, 3), stride=(1, 1), padding=(1, 1))
      (1): GroupNorm(128, 128, eps=1e-05, affine=True)
      (2): ReLU(inplace=True)
      (3): AvgPool2d(kernel_size=2, stride=2, padding=0)
      (4): Conv2d(128, 128, kernel_size=(3, 3), stride=(1, 1), padding=(1, 1))
      (5): GroupNorm(128, 128, eps=1e-05, affine=True)
      (6): ReLU(inplace=True)
      (7): AvgPool2d(kernel_size=2, stride=2, padding=0)
      (8): Conv2d(128, 128, kernel_size=(3, 3), stride=(1, 1), padding=(1, 1))
      (9): GroupNorm(128, 128, eps=1e-05, affine=True)
      (10): ReLU(inplace=True)
      (11): AvgPool2d(kernel_size=2, stride=2, padding=0)
    )
    (classifier): Linear(in_features=128, out_features=31, bias=True)
  )
  (pool_layer): Sequential(
    (0): AdaptiveAvgPool2d(output_size=(1, 1))
    (1): Flatten(start_dim=1, end_dim=-1)
  )
  (bottleneck): Sequential(
    (0): Linear(in_features=128, out_features=256, bias=True)
    (1): BatchNorm1d(256, eps=1e-05, momentum=0.1, affine=True, track_running_stats=True)
    (2): ReLU()
  )
  (head): Linear(in_features=256, out_features=31, bias=True)
)
torch.Size([2, 3, 32, 32])
ImageClassifier(
  (backbone): ConvNet(
    (features): Sequential(
      (0): Conv2d(3, 128, kernel_size=(3, 3), stride=(1, 1), padding=(1, 1))
      (1): GroupNorm(128, 128, eps=1e-05, affine=True)
      (2): ReLU(inplace=True)
      (3): AvgPool2d(kernel_size=2, stride=2, padding=0)
      (4): Conv2d(128, 128, kernel_size=(3, 3), stride=(1, 1), padding=(1, 1))
      (5): GroupNorm(128, 128, eps=1e-05, affine=True)
      (6): ReLU(inplace=True)
      (7): AvgPool2d(kernel_size=2, stride=2, padding=0)
      (8): Conv2d(128, 128, kernel_size=(3, 3), stride=(1, 1), padding=(1, 1))
      (9): GroupNorm(128, 128, eps=1e-05, affine=True)
      (10): ReLU(inplace=True)
      (11): AvgPool2d(kernel_size=2, stride=2, padding=0)
    )
    (classifier): Linear(in_features=128, out_features=31, bias=True)
  )
  (pool_layer): Sequential(
    (0): AdaptiveAvgPool2d(output_size=(1, 1))
    (1): Flatten(start_dim=1, end_dim=-1)
  )
  (bottleneck): Sequential(
    (0): Linear(in_features=128, out_features=256, bias=True)
    (1): BatchNorm1d(256, eps=1e-05, momentum=0.1, affine=True, track_running_stats=True)
    (2): ReLU()
  )
  (head): Linear(in_features=256, out_features=31, bias=True)
)
torch.Size([2, 3, 32, 32])
ImageClassifier(
  (backbone): ConvNet(
    (features): Sequential(
      (0): Conv2d(3, 128, kernel_size=(3, 3), stride=(1, 1), padding=(1, 1))
      (1): GroupNorm(128, 128, eps=1e-05, affine=True)
      (2): ReLU(inplace=True)
      (3): AvgPool2d(kernel_size=2, stride=2, padding=0)
      (4): Conv2d(128, 128, kernel_size=(3, 3), stride=(1, 1), padding=(1, 1))
      (5): GroupNorm(128, 128, eps=1e-05, affine=True)
      (6): ReLU(inplace=True)
      (7): AvgPool2d(kernel_size=2, stride=2, padding=0)
      (8): Conv2d(128, 128, kernel_size=(3, 3), stride=(1, 1), padding=(1, 1))
      (9): GroupNorm(128, 128, eps=1e-05, affine=True)
      (10): ReLU(inplace=True)
      (11): AvgPool2d(kernel_size=2, stride=2, padding=0)
    )
    (classifier): Linear(in_features=128, out_features=31, bias=True)
  )
  (pool_layer): Sequential(
    (0): AdaptiveAvgPool2d(output_size=(1, 1))
    (1): Flatten(start_dim=1, end_dim=-1)
  )
  (bottleneck): Sequential(
    (0): Linear(in_features=128, out_features=256, bias=True)
    (1): BatchNorm1d(256, eps=1e-05, momentum=0.1, affine=True, track_running_stats=True)
    (2): ReLU()
  )
  (head): Linear(in_features=256, out_features=31, bias=True)
)
torch.Size([2, 3, 32, 32])
ImageClassifier(
  (backbone): ConvNet(
    (features): Sequential(
      (0): Conv2d(3, 128, kernel_size=(3, 3), stride=(1, 1), padding=(1, 1))
      (1): GroupNorm(128, 128, eps=1e-05, affine=True)
      (2): ReLU(inplace=True)
      (3): AvgPool2d(kernel_size=2, stride=2, padding=0)
      (4): Conv2d(128, 128, kernel_size=(3, 3), stride=(1, 1), padding=(1, 1))
      (5): GroupNorm(128, 128, eps=1e-05, affine=True)
      (6): ReLU(inplace=True)
      (7): AvgPool2d(kernel_size=2, stride=2, padding=0)
      (8): Conv2d(128, 128, kernel_size=(3, 3), stride=(1, 1), padding=(1, 1))
      (9): GroupNorm(128, 128, eps=1e-05, affine=True)
      (10): ReLU(inplace=True)
      (11): AvgPool2d(kernel_size=2, stride=2, padding=0)
    )
    (classifier): Linear(in_features=128, out_features=31, bias=True)
  )
  (pool_layer): Sequential(
    (0): AdaptiveAvgPool2d(output_size=(1, 1))
    (1): Flatten(start_dim=1, end_dim=-1)
  )
  (bottleneck): Sequential(
    (0): Linear(in_features=128, out_features=256, bias=True)
    (1): BatchNorm1d(256, eps=1e-05, momentum=0.1, affine=True, track_running_stats=True)
    (2): ReLU()
  )
  (head): Linear(in_features=256, out_features=31, bias=True)
)
torch.Size([2, 3, 32, 32])
ImageClassifier(
  (backbone): ConvNet(
    (features): Sequential(
      (0): Conv2d(3, 128, kernel_size=(3, 3), stride=(1, 1), padding=(1, 1))
      (1): GroupNorm(128, 128, eps=1e-05, affine=True)
      (2): ReLU(inplace=True)
      (3): AvgPool2d(kernel_size=2, stride=2, padding=0)
      (4): Conv2d(128, 128, kernel_size=(3, 3), stride=(1, 1), padding=(1, 1))
      (5): GroupNorm(128, 128, eps=1e-05, affine=True)
      (6): ReLU(inplace=True)
      (7): AvgPool2d(kernel_size=2, stride=2, padding=0)
      (8): Conv2d(128, 128, kernel_size=(3, 3), stride=(1, 1), padding=(1, 1))
      (9): GroupNorm(128, 128, eps=1e-05, affine=True)
      (10): ReLU(inplace=True)
      (11): AvgPool2d(kernel_size=2, stride=2, padding=0)
    )
    (classifier): Linear(in_features=128, out_features=31, bias=True)
  )
  (pool_layer): Sequential(
    (0): AdaptiveAvgPool2d(output_size=(1, 1))
    (1): Flatten(start_dim=1, end_dim=-1)
  )
  (bottleneck): Sequential(
    (0): Linear(in_features=128, out_features=256, bias=True)
    (1): BatchNorm1d(256, eps=1e-05, momentum=0.1, affine=True, track_running_stats=True)
    (2): ReLU()
  )
  (head): Linear(in_features=256, out_features=31, bias=True)
)
torch.Size([2, 3, 32, 32])
ImageClassifier(
  (backbone): ConvNet(
    (features): Sequential(
      (0): Conv2d(3, 128, kernel_size=(3, 3), stride=(1, 1), padding=(1, 1))
      (1): GroupNorm(128, 128, eps=1e-05, affine=True)
      (2): ReLU(inplace=True)
      (3): AvgPool2d(kernel_size=2, stride=2, padding=0)
      (4): Conv2d(128, 128, kernel_size=(3, 3), stride=(1, 1), padding=(1, 1))
      (5): GroupNorm(128, 128, eps=1e-05, affine=True)
      (6): ReLU(inplace=True)
      (7): AvgPool2d(kernel_size=2, stride=2, padding=0)
      (8): Conv2d(128, 128, kernel_size=(3, 3), stride=(1, 1), padding=(1, 1))
      (9): GroupNorm(128, 128, eps=1e-05, affine=True)
      (10): ReLU(inplace=True)
      (11): AvgPool2d(kernel_size=2, stride=2, padding=0)
    )
    (classifier): Linear(in_features=128, out_features=31, bias=True)
  )
  (pool_layer): Sequential(
    (0): AdaptiveAvgPool2d(output_size=(1, 1))
    (1): Flatten(start_dim=1, end_dim=-1)
  )
  (bottleneck): Sequential(
    (0): Linear(in_features=128, out_features=256, bias=True)
    (1): BatchNorm1d(256, eps=1e-05, momentum=0.1, affine=True, track_running_stats=True)
    (2): ReLU()
  )
  (head): Linear(in_features=256, out_features=31, bias=True)
)
Epoch: [0][ 100/1000]	Time  0.01 ( 0.01)	Data  0.00 ( 0.00)	Loss   4.43 (  4.83)	Cls Acc 0.0 (1.0)	Domain Acc 100.0 (82.2)
torch.Size([2, 3, 32, 32])
ImageClassifier(
  (backbone): ConvNet(
    (features): Sequential(
      (0): Conv2d(3, 128, kernel_size=(3, 3), stride=(1, 1), padding=(1, 1))
      (1): GroupNorm(128, 128, eps=1e-05, affine=True)
      (2): ReLU(inplace=True)
      (3): AvgPool2d(kernel_size=2, stride=2, padding=0)
      (4): Conv2d(128, 128, kernel_size=(3, 3), stride=(1, 1), padding=(1, 1))
      (5): GroupNorm(128, 128, eps=1e-05, affine=True)
      (6): ReLU(inplace=True)
      (7): AvgPool2d(kernel_size=2, stride=2, padding=0)
      (8): Conv2d(128, 128, kernel_size=(3, 3), stride=(1, 1), padding=(1, 1))
      (9): GroupNorm(128, 128, eps=1e-05, affine=True)
      (10): ReLU(inplace=True)
      (11): AvgPool2d(kernel_size=2, stride=2, padding=0)
    )
    (classifier): Linear(in_features=128, out_features=31, bias=True)
  )
  (pool_layer): Sequential(
    (0): AdaptiveAvgPool2d(output_size=(1, 1))
    (1): Flatten(start_dim=1, end_dim=-1)
  )
  (bottleneck): Sequential(
    (0): Linear(in_features=128, out_features=256, bias=True)
    (1): BatchNorm1d(256, eps=1e-05, momentum=0.1, affine=True, track_running_stats=True)
    (2): ReLU()
  )
  (head): Linear(in_features=256, out_features=31, bias=True)
)
torch.Size([2, 3, 32, 32])
ImageClassifier(
  (backbone): ConvNet(
    (features): Sequential(
      (0): Conv2d(3, 128, kernel_size=(3, 3), stride=(1, 1), padding=(1, 1))
      (1): GroupNorm(128, 128, eps=1e-05, affine=True)
      (2): ReLU(inplace=True)
      (3): AvgPool2d(kernel_size=2, stride=2, padding=0)
      (4): Conv2d(128, 128, kernel_size=(3, 3), stride=(1, 1), padding=(1, 1))
      (5): GroupNorm(128, 128, eps=1e-05, affine=True)
      (6): ReLU(inplace=True)
      (7): AvgPool2d(kernel_size=2, stride=2, padding=0)
      (8): Conv2d(128, 128, kernel_size=(3, 3), stride=(1, 1), padding=(1, 1))
      (9): GroupNorm(128, 128, eps=1e-05, affine=True)
      (10): ReLU(inplace=True)
      (11): AvgPool2d(kernel_size=2, stride=2, padding=0)
    )
    (classifier): Linear(in_features=128, out_features=31, bias=True)
  )
  (pool_layer): Sequential(
    (0): AdaptiveAvgPool2d(output_size=(1, 1))
    (1): Flatten(start_dim=1, end_dim=-1)
  )
  (bottleneck): Sequential(
    (0): Linear(in_features=128, out_features=256, bias=True)
    (1): BatchNorm1d(256, eps=1e-05, momentum=0.1, affine=True, track_running_stats=True)
    (2): ReLU()
  )
  (head): Linear(in_features=256, out_features=31, bias=True)
)
torch.Size([2, 3, 32, 32])
ImageClassifier(
  (backbone): ConvNet(
    (features): Sequential(
      (0): Conv2d(3, 128, kernel_size=(3, 3), stride=(1, 1), padding=(1, 1))
      (1): GroupNorm(128, 128, eps=1e-05, affine=True)
      (2): ReLU(inplace=True)
      (3): AvgPool2d(kernel_size=2, stride=2, padding=0)
      (4): Conv2d(128, 128, kernel_size=(3, 3), stride=(1, 1), padding=(1, 1))
      (5): GroupNorm(128, 128, eps=1e-05, affine=True)
      (6): ReLU(inplace=True)
      (7): AvgPool2d(kernel_size=2, stride=2, padding=0)
      (8): Conv2d(128, 128, kernel_size=(3, 3), stride=(1, 1), padding=(1, 1))
      (9): GroupNorm(128, 128, eps=1e-05, affine=True)
      (10): ReLU(inplace=True)
      (11): AvgPool2d(kernel_size=2, stride=2, padding=0)
    )
    (classifier): Linear(in_features=128, out_features=31, bias=True)
  )
  (pool_layer): Sequential(
    (0): AdaptiveAvgPool2d(output_size=(1, 1))
    (1): Flatten(start_dim=1, end_dim=-1)
  )
  (bottleneck): Sequential(
    (0): Linear(in_features=128, out_features=256, bias=True)
    (1): BatchNorm1d(256, eps=1e-05, momentum=0.1, affine=True, track_running_stats=True)
    (2): ReLU()
  )
  (head): Linear(in_features=256, out_features=31, bias=True)
)
torch.Size([2, 3, 32, 32])
ImageClassifier(
  (backbone): ConvNet(
    (features): Sequential(
      (0): Conv2d(3, 128, kernel_size=(3, 3), stride=(1, 1), padding=(1, 1))
      (1): GroupNorm(128, 128, eps=1e-05, affine=True)
      (2): ReLU(inplace=True)
      (3): AvgPool2d(kernel_size=2, stride=2, padding=0)
      (4): Conv2d(128, 128, kernel_size=(3, 3), stride=(1, 1), padding=(1, 1))
      (5): GroupNorm(128, 128, eps=1e-05, affine=True)
      (6): ReLU(inplace=True)
      (7): AvgPool2d(kernel_size=2, stride=2, padding=0)
      (8): Conv2d(128, 128, kernel_size=(3, 3), stride=(1, 1), padding=(1, 1))
      (9): GroupNorm(128, 128, eps=1e-05, affine=True)
      (10): ReLU(inplace=True)
      (11): AvgPool2d(kernel_size=2, stride=2, padding=0)
    )
    (classifier): Linear(in_features=128, out_features=31, bias=True)
  )
  (pool_layer): Sequential(
    (0): AdaptiveAvgPool2d(output_size=(1, 1))
    (1): Flatten(start_dim=1, end_dim=-1)
  )
  (bottleneck): Sequential(
    (0): Linear(in_features=128, out_features=256, bias=True)
    (1): BatchNorm1d(256, eps=1e-05, momentum=0.1, affine=True, track_running_stats=True)
    (2): ReLU()
  )
  (head): Linear(in_features=256, out_features=31, bias=True)
)
torch.Size([2, 3, 32, 32])
ImageClassifier(
  (backbone): ConvNet(
    (features): Sequential(
      (0): Conv2d(3, 128, kernel_size=(3, 3), stride=(1, 1), padding=(1, 1))
      (1): GroupNorm(128, 128, eps=1e-05, affine=True)
      (2): ReLU(inplace=True)
      (3): AvgPool2d(kernel_size=2, stride=2, padding=0)
      (4): Conv2d(128, 128, kernel_size=(3, 3), stride=(1, 1), padding=(1, 1))
      (5): GroupNorm(128, 128, eps=1e-05, affine=True)
      (6): ReLU(inplace=True)
      (7): AvgPool2d(kernel_size=2, stride=2, padding=0)
      (8): Conv2d(128, 128, kernel_size=(3, 3), stride=(1, 1), padding=(1, 1))
      (9): GroupNorm(128, 128, eps=1e-05, affine=True)
      (10): ReLU(inplace=True)
      (11): AvgPool2d(kernel_size=2, stride=2, padding=0)
    )
    (classifier): Linear(in_features=128, out_features=31, bias=True)
  )
  (pool_layer): Sequential(
    (0): AdaptiveAvgPool2d(output_size=(1, 1))
    (1): Flatten(start_dim=1, end_dim=-1)
  )
  (bottleneck): Sequential(
    (0): Linear(in_features=128, out_features=256, bias=True)
    (1): BatchNorm1d(256, eps=1e-05, momentum=0.1, affine=True, track_running_stats=True)
    (2): ReLU()
  )
  (head): Linear(in_features=256, out_features=31, bias=True)
)
torch.Size([2, 3, 32, 32])
ImageClassifier(
  (backbone): ConvNet(
    (features): Sequential(
      (0): Conv2d(3, 128, kernel_size=(3, 3), stride=(1, 1), padding=(1, 1))
      (1): GroupNorm(128, 128, eps=1e-05, affine=True)
      (2): ReLU(inplace=True)
      (3): AvgPool2d(kernel_size=2, stride=2, padding=0)
      (4): Conv2d(128, 128, kernel_size=(3, 3), stride=(1, 1), padding=(1, 1))
      (5): GroupNorm(128, 128, eps=1e-05, affine=True)
      (6): ReLU(inplace=True)
      (7): AvgPool2d(kernel_size=2, stride=2, padding=0)
      (8): Conv2d(128, 128, kernel_size=(3, 3), stride=(1, 1), padding=(1, 1))
      (9): GroupNorm(128, 128, eps=1e-05, affine=True)
      (10): ReLU(inplace=True)
      (11): AvgPool2d(kernel_size=2, stride=2, padding=0)
    )
    (classifier): Linear(in_features=128, out_features=31, bias=True)
  )
  (pool_layer): Sequential(
    (0): AdaptiveAvgPool2d(output_size=(1, 1))
    (1): Flatten(start_dim=1, end_dim=-1)
  )
  (bottleneck): Sequential(
    (0): Linear(in_features=128, out_features=256, bias=True)
    (1): BatchNorm1d(256, eps=1e-05, momentum=0.1, affine=True, track_running_stats=True)
    (2): ReLU()
  )
  (head): Linear(in_features=256, out_features=31, bias=True)
)
torch.Size([2, 3, 32, 32])
ImageClassifier(
  (backbone): ConvNet(
    (features): Sequential(
      (0): Conv2d(3, 128, kernel_size=(3, 3), stride=(1, 1), padding=(1, 1))
      (1): GroupNorm(128, 128, eps=1e-05, affine=True)
      (2): ReLU(inplace=True)
      (3): AvgPool2d(kernel_size=2, stride=2, padding=0)
      (4): Conv2d(128, 128, kernel_size=(3, 3), stride=(1, 1), padding=(1, 1))
      (5): GroupNorm(128, 128, eps=1e-05, affine=True)
      (6): ReLU(inplace=True)
      (7): AvgPool2d(kernel_size=2, stride=2, padding=0)
      (8): Conv2d(128, 128, kernel_size=(3, 3), stride=(1, 1), padding=(1, 1))
      (9): GroupNorm(128, 128, eps=1e-05, affine=True)
      (10): ReLU(inplace=True)
      (11): AvgPool2d(kernel_size=2, stride=2, padding=0)
    )
    (classifier): Linear(in_features=128, out_features=31, bias=True)
  )
  (pool_layer): Sequential(
    (0): AdaptiveAvgPool2d(output_size=(1, 1))
    (1): Flatten(start_dim=1, end_dim=-1)
  )
  (bottleneck): Sequential(
    (0): Linear(in_features=128, out_features=256, bias=True)
    (1): BatchNorm1d(256, eps=1e-05, momentum=0.1, affine=True, track_running_stats=True)
    (2): ReLU()
  )
  (head): Linear(in_features=256, out_features=31, bias=True)
)
torch.Size([2, 3, 32, 32])
ImageClassifier(
  (backbone): ConvNet(
    (features): Sequential(
      (0): Conv2d(3, 128, kernel_size=(3, 3), stride=(1, 1), padding=(1, 1))
      (1): GroupNorm(128, 128, eps=1e-05, affine=True)
      (2): ReLU(inplace=True)
      (3): AvgPool2d(kernel_size=2, stride=2, padding=0)
      (4): Conv2d(128, 128, kernel_size=(3, 3), stride=(1, 1), padding=(1, 1))
      (5): GroupNorm(128, 128, eps=1e-05, affine=True)
      (6): ReLU(inplace=True)
      (7): AvgPool2d(kernel_size=2, stride=2, padding=0)
      (8): Conv2d(128, 128, kernel_size=(3, 3), stride=(1, 1), padding=(1, 1))
      (9): GroupNorm(128, 128, eps=1e-05, affine=True)
      (10): ReLU(inplace=True)
      (11): AvgPool2d(kernel_size=2, stride=2, padding=0)
    )
    (classifier): Linear(in_features=128, out_features=31, bias=True)
  )
  (pool_layer): Sequential(
    (0): AdaptiveAvgPool2d(output_size=(1, 1))
    (1): Flatten(start_dim=1, end_dim=-1)
  )
  (bottleneck): Sequential(
    (0): Linear(in_features=128, out_features=256, bias=True)
    (1): BatchNorm1d(256, eps=1e-05, momentum=0.1, affine=True, track_running_stats=True)
    (2): ReLU()
  )
  (head): Linear(in_features=256, out_features=31, bias=True)
)
torch.Size([2, 3, 32, 32])
ImageClassifier(
  (backbone): ConvNet(
    (features): Sequential(
      (0): Conv2d(3, 128, kernel_size=(3, 3), stride=(1, 1), padding=(1, 1))
      (1): GroupNorm(128, 128, eps=1e-05, affine=True)
      (2): ReLU(inplace=True)
      (3): AvgPool2d(kernel_size=2, stride=2, padding=0)
      (4): Conv2d(128, 128, kernel_size=(3, 3), stride=(1, 1), padding=(1, 1))
      (5): GroupNorm(128, 128, eps=1e-05, affine=True)
      (6): ReLU(inplace=True)
      (7): AvgPool2d(kernel_size=2, stride=2, padding=0)
      (8): Conv2d(128, 128, kernel_size=(3, 3), stride=(1, 1), padding=(1, 1))
      (9): GroupNorm(128, 128, eps=1e-05, affine=True)
      (10): ReLU(inplace=True)
      (11): AvgPool2d(kernel_size=2, stride=2, padding=0)
    )
    (classifier): Linear(in_features=128, out_features=31, bias=True)
  )
  (pool_layer): Sequential(
    (0): AdaptiveAvgPool2d(output_size=(1, 1))
    (1): Flatten(start_dim=1, end_dim=-1)
  )
  (bottleneck): Sequential(
    (0): Linear(in_features=128, out_features=256, bias=True)
    (1): BatchNorm1d(256, eps=1e-05, momentum=0.1, affine=True, track_running_stats=True)
    (2): ReLU()
  )
  (head): Linear(in_features=256, out_features=31, bias=True)
)
torch.Size([2, 3, 32, 32])
ImageClassifier(
  (backbone): ConvNet(
    (features): Sequential(
      (0): Conv2d(3, 128, kernel_size=(3, 3), stride=(1, 1), padding=(1, 1))
      (1): GroupNorm(128, 128, eps=1e-05, affine=True)
      (2): ReLU(inplace=True)
      (3): AvgPool2d(kernel_size=2, stride=2, padding=0)
      (4): Conv2d(128, 128, kernel_size=(3, 3), stride=(1, 1), padding=(1, 1))
      (5): GroupNorm(128, 128, eps=1e-05, affine=True)
      (6): ReLU(inplace=True)
      (7): AvgPool2d(kernel_size=2, stride=2, padding=0)
      (8): Conv2d(128, 128, kernel_size=(3, 3), stride=(1, 1), padding=(1, 1))
      (9): GroupNorm(128, 128, eps=1e-05, affine=True)
      (10): ReLU(inplace=True)
      (11): AvgPool2d(kernel_size=2, stride=2, padding=0)
    )
    (classifier): Linear(in_features=128, out_features=31, bias=True)
  )
  (pool_layer): Sequential(
    (0): AdaptiveAvgPool2d(output_size=(1, 1))
    (1): Flatten(start_dim=1, end_dim=-1)
  )
  (bottleneck): Sequential(
    (0): Linear(in_features=128, out_features=256, bias=True)
    (1): BatchNorm1d(256, eps=1e-05, momentum=0.1, affine=True, track_running_stats=True)
    (2): ReLU()
  )
  (head): Linear(in_features=256, out_features=31, bias=True)
)
torch.Size([2, 3, 32, 32])
ImageClassifier(
  (backbone): ConvNet(
    (features): Sequential(
      (0): Conv2d(3, 128, kernel_size=(3, 3), stride=(1, 1), padding=(1, 1))
      (1): GroupNorm(128, 128, eps=1e-05, affine=True)
      (2): ReLU(inplace=True)
      (3): AvgPool2d(kernel_size=2, stride=2, padding=0)
      (4): Conv2d(128, 128, kernel_size=(3, 3), stride=(1, 1), padding=(1, 1))
      (5): GroupNorm(128, 128, eps=1e-05, affine=True)
      (6): ReLU(inplace=True)
      (7): AvgPool2d(kernel_size=2, stride=2, padding=0)
      (8): Conv2d(128, 128, kernel_size=(3, 3), stride=(1, 1), padding=(1, 1))
      (9): GroupNorm(128, 128, eps=1e-05, affine=True)
      (10): ReLU(inplace=True)
      (11): AvgPool2d(kernel_size=2, stride=2, padding=0)
    )
    (classifier): Linear(in_features=128, out_features=31, bias=True)
  )
  (pool_layer): Sequential(
    (0): AdaptiveAvgPool2d(output_size=(1, 1))
    (1): Flatten(start_dim=1, end_dim=-1)
  )
  (bottleneck): Sequential(
    (0): Linear(in_features=128, out_features=256, bias=True)
    (1): BatchNorm1d(256, eps=1e-05, momentum=0.1, affine=True, track_running_stats=True)
    (2): ReLU()
  )
  (head): Linear(in_features=256, out_features=31, bias=True)
)
torch.Size([2, 3, 32, 32])
ImageClassifier(
  (backbone): ConvNet(
    (features): Sequential(
      (0): Conv2d(3, 128, kernel_size=(3, 3), stride=(1, 1), padding=(1, 1))
      (1): GroupNorm(128, 128, eps=1e-05, affine=True)
      (2): ReLU(inplace=True)
      (3): AvgPool2d(kernel_size=2, stride=2, padding=0)
      (4): Conv2d(128, 128, kernel_size=(3, 3), stride=(1, 1), padding=(1, 1))
      (5): GroupNorm(128, 128, eps=1e-05, affine=True)
      (6): ReLU(inplace=True)
      (7): AvgPool2d(kernel_size=2, stride=2, padding=0)
      (8): Conv2d(128, 128, kernel_size=(3, 3), stride=(1, 1), padding=(1, 1))
      (9): GroupNorm(128, 128, eps=1e-05, affine=True)
      (10): ReLU(inplace=True)
      (11): AvgPool2d(kernel_size=2, stride=2, padding=0)
    )
    (classifier): Linear(in_features=128, out_features=31, bias=True)
  )
  (pool_layer): Sequential(
    (0): AdaptiveAvgPool2d(output_size=(1, 1))
    (1): Flatten(start_dim=1, end_dim=-1)
  )
  (bottleneck): Sequential(
    (0): Linear(in_features=128, out_features=256, bias=True)
    (1): BatchNorm1d(256, eps=1e-05, momentum=0.1, affine=True, track_running_stats=True)
    (2): ReLU()
  )
  (head): Linear(in_features=256, out_features=31, bias=True)
)
torch.Size([2, 3, 32, 32])
ImageClassifier(
  (backbone): ConvNet(
    (features): Sequential(
      (0): Conv2d(3, 128, kernel_size=(3, 3), stride=(1, 1), padding=(1, 1))
      (1): GroupNorm(128, 128, eps=1e-05, affine=True)
      (2): ReLU(inplace=True)
      (3): AvgPool2d(kernel_size=2, stride=2, padding=0)
      (4): Conv2d(128, 128, kernel_size=(3, 3), stride=(1, 1), padding=(1, 1))
      (5): GroupNorm(128, 128, eps=1e-05, affine=True)
      (6): ReLU(inplace=True)
      (7): AvgPool2d(kernel_size=2, stride=2, padding=0)
      (8): Conv2d(128, 128, kernel_size=(3, 3), stride=(1, 1), padding=(1, 1))
      (9): GroupNorm(128, 128, eps=1e-05, affine=True)
      (10): ReLU(inplace=True)
      (11): AvgPool2d(kernel_size=2, stride=2, padding=0)
    )
    (classifier): Linear(in_features=128, out_features=31, bias=True)
  )
  (pool_layer): Sequential(
    (0): AdaptiveAvgPool2d(output_size=(1, 1))
    (1): Flatten(start_dim=1, end_dim=-1)
  )
  (bottleneck): Sequential(
    (0): Linear(in_features=128, out_features=256, bias=True)
    (1): BatchNorm1d(256, eps=1e-05, momentum=0.1, affine=True, track_running_stats=True)
    (2): ReLU()
  )
  (head): Linear(in_features=256, out_features=31, bias=True)
)
torch.Size([2, 3, 32, 32])
ImageClassifier(
  (backbone): ConvNet(
    (features): Sequential(
      (0): Conv2d(3, 128, kernel_size=(3, 3), stride=(1, 1), padding=(1, 1))
      (1): GroupNorm(128, 128, eps=1e-05, affine=True)
      (2): ReLU(inplace=True)
      (3): AvgPool2d(kernel_size=2, stride=2, padding=0)
      (4): Conv2d(128, 128, kernel_size=(3, 3), stride=(1, 1), padding=(1, 1))
      (5): GroupNorm(128, 128, eps=1e-05, affine=True)
      (6): ReLU(inplace=True)
      (7): AvgPool2d(kernel_size=2, stride=2, padding=0)
      (8): Conv2d(128, 128, kernel_size=(3, 3), stride=(1, 1), padding=(1, 1))
      (9): GroupNorm(128, 128, eps=1e-05, affine=True)
      (10): ReLU(inplace=True)
      (11): AvgPool2d(kernel_size=2, stride=2, padding=0)
    )
    (classifier): Linear(in_features=128, out_features=31, bias=True)
  )
  (pool_layer): Sequential(
    (0): AdaptiveAvgPool2d(output_size=(1, 1))
    (1): Flatten(start_dim=1, end_dim=-1)
  )
  (bottleneck): Sequential(
    (0): Linear(in_features=128, out_features=256, bias=True)
    (1): BatchNorm1d(256, eps=1e-05, momentum=0.1, affine=True, track_running_stats=True)
    (2): ReLU()
  )
  (head): Linear(in_features=256, out_features=31, bias=True)
)
torch.Size([2, 3, 32, 32])
ImageClassifier(
  (backbone): ConvNet(
    (features): Sequential(
      (0): Conv2d(3, 128, kernel_size=(3, 3), stride=(1, 1), padding=(1, 1))
      (1): GroupNorm(128, 128, eps=1e-05, affine=True)
      (2): ReLU(inplace=True)
      (3): AvgPool2d(kernel_size=2, stride=2, padding=0)
      (4): Conv2d(128, 128, kernel_size=(3, 3), stride=(1, 1), padding=(1, 1))
      (5): GroupNorm(128, 128, eps=1e-05, affine=True)
      (6): ReLU(inplace=True)
      (7): AvgPool2d(kernel_size=2, stride=2, padding=0)
      (8): Conv2d(128, 128, kernel_size=(3, 3), stride=(1, 1), padding=(1, 1))
      (9): GroupNorm(128, 128, eps=1e-05, affine=True)
      (10): ReLU(inplace=True)
      (11): AvgPool2d(kernel_size=2, stride=2, padding=0)
    )
    (classifier): Linear(in_features=128, out_features=31, bias=True)
  )
  (pool_layer): Sequential(
    (0): AdaptiveAvgPool2d(output_size=(1, 1))
    (1): Flatten(start_dim=1, end_dim=-1)
  )
  (bottleneck): Sequential(
    (0): Linear(in_features=128, out_features=256, bias=True)
    (1): BatchNorm1d(256, eps=1e-05, momentum=0.1, affine=True, track_running_stats=True)
    (2): ReLU()
  )
  (head): Linear(in_features=256, out_features=31, bias=True)
)
torch.Size([2, 3, 32, 32])
ImageClassifier(
  (backbone): ConvNet(
    (features): Sequential(
      (0): Conv2d(3, 128, kernel_size=(3, 3), stride=(1, 1), padding=(1, 1))
      (1): GroupNorm(128, 128, eps=1e-05, affine=True)
      (2): ReLU(inplace=True)
      (3): AvgPool2d(kernel_size=2, stride=2, padding=0)
      (4): Conv2d(128, 128, kernel_size=(3, 3), stride=(1, 1), padding=(1, 1))
      (5): GroupNorm(128, 128, eps=1e-05, affine=True)
      (6): ReLU(inplace=True)
      (7): AvgPool2d(kernel_size=2, stride=2, padding=0)
      (8): Conv2d(128, 128, kernel_size=(3, 3), stride=(1, 1), padding=(1, 1))
      (9): GroupNorm(128, 128, eps=1e-05, affine=True)
      (10): ReLU(inplace=True)
      (11): AvgPool2d(kernel_size=2, stride=2, padding=0)
    )
    (classifier): Linear(in_features=128, out_features=31, bias=True)
  )
  (pool_layer): Sequential(
    (0): AdaptiveAvgPool2d(output_size=(1, 1))
    (1): Flatten(start_dim=1, end_dim=-1)
  )
  (bottleneck): Sequential(
    (0): Linear(in_features=128, out_features=256, bias=True)
    (1): BatchNorm1d(256, eps=1e-05, momentum=0.1, affine=True, track_running_stats=True)
    (2): ReLU()
  )
  (head): Linear(in_features=256, out_features=31, bias=True)
)
torch.Size([2, 3, 32, 32])
ImageClassifier(
  (backbone): ConvNet(
    (features): Sequential(
      (0): Conv2d(3, 128, kernel_size=(3, 3), stride=(1, 1), padding=(1, 1))
      (1): GroupNorm(128, 128, eps=1e-05, affine=True)
      (2): ReLU(inplace=True)
      (3): AvgPool2d(kernel_size=2, stride=2, padding=0)
      (4): Conv2d(128, 128, kernel_size=(3, 3), stride=(1, 1), padding=(1, 1))
      (5): GroupNorm(128, 128, eps=1e-05, affine=True)
      (6): ReLU(inplace=True)
      (7): AvgPool2d(kernel_size=2, stride=2, padding=0)
      (8): Conv2d(128, 128, kernel_size=(3, 3), stride=(1, 1), padding=(1, 1))
      (9): GroupNorm(128, 128, eps=1e-05, affine=True)
      (10): ReLU(inplace=True)
      (11): AvgPool2d(kernel_size=2, stride=2, padding=0)
    )
    (classifier): Linear(in_features=128, out_features=31, bias=True)
  )
  (pool_layer): Sequential(
    (0): AdaptiveAvgPool2d(output_size=(1, 1))
    (1): Flatten(start_dim=1, end_dim=-1)
  )
  (bottleneck): Sequential(
    (0): Linear(in_features=128, out_features=256, bias=True)
    (1): BatchNorm1d(256, eps=1e-05, momentum=0.1, affine=True, track_running_stats=True)
    (2): ReLU()
  )
  (head): Linear(in_features=256, out_features=31, bias=True)
)
torch.Size([2, 3, 32, 32])
ImageClassifier(
  (backbone): ConvNet(
    (features): Sequential(
      (0): Conv2d(3, 128, kernel_size=(3, 3), stride=(1, 1), padding=(1, 1))
      (1): GroupNorm(128, 128, eps=1e-05, affine=True)
      (2): ReLU(inplace=True)
      (3): AvgPool2d(kernel_size=2, stride=2, padding=0)
      (4): Conv2d(128, 128, kernel_size=(3, 3), stride=(1, 1), padding=(1, 1))
      (5): GroupNorm(128, 128, eps=1e-05, affine=True)
      (6): ReLU(inplace=True)
      (7): AvgPool2d(kernel_size=2, stride=2, padding=0)
      (8): Conv2d(128, 128, kernel_size=(3, 3), stride=(1, 1), padding=(1, 1))
      (9): GroupNorm(128, 128, eps=1e-05, affine=True)
      (10): ReLU(inplace=True)
      (11): AvgPool2d(kernel_size=2, stride=2, padding=0)
    )
    (classifier): Linear(in_features=128, out_features=31, bias=True)
  )
  (pool_layer): Sequential(
    (0): AdaptiveAvgPool2d(output_size=(1, 1))
    (1): Flatten(start_dim=1, end_dim=-1)
  )
  (bottleneck): Sequential(
    (0): Linear(in_features=128, out_features=256, bias=True)
    (1): BatchNorm1d(256, eps=1e-05, momentum=0.1, affine=True, track_running_stats=True)
    (2): ReLU()
  )
  (head): Linear(in_features=256, out_features=31, bias=True)
)
torch.Size([2, 3, 32, 32])
ImageClassifier(
  (backbone): ConvNet(
    (features): Sequential(
      (0): Conv2d(3, 128, kernel_size=(3, 3), stride=(1, 1), padding=(1, 1))
      (1): GroupNorm(128, 128, eps=1e-05, affine=True)
      (2): ReLU(inplace=True)
      (3): AvgPool2d(kernel_size=2, stride=2, padding=0)
      (4): Conv2d(128, 128, kernel_size=(3, 3), stride=(1, 1), padding=(1, 1))
      (5): GroupNorm(128, 128, eps=1e-05, affine=True)
      (6): ReLU(inplace=True)
      (7): AvgPool2d(kernel_size=2, stride=2, padding=0)
      (8): Conv2d(128, 128, kernel_size=(3, 3), stride=(1, 1), padding=(1, 1))
      (9): GroupNorm(128, 128, eps=1e-05, affine=True)
      (10): ReLU(inplace=True)
      (11): AvgPool2d(kernel_size=2, stride=2, padding=0)
    )
    (classifier): Linear(in_features=128, out_features=31, bias=True)
  )
  (pool_layer): Sequential(
    (0): AdaptiveAvgPool2d(output_size=(1, 1))
    (1): Flatten(start_dim=1, end_dim=-1)
  )
  (bottleneck): Sequential(
    (0): Linear(in_features=128, out_features=256, bias=True)
    (1): BatchNorm1d(256, eps=1e-05, momentum=0.1, affine=True, track_running_stats=True)
    (2): ReLU()
  )
  (head): Linear(in_features=256, out_features=31, bias=True)
)
torch.Size([2, 3, 32, 32])
ImageClassifier(
  (backbone): ConvNet(
    (features): Sequential(
      (0): Conv2d(3, 128, kernel_size=(3, 3), stride=(1, 1), padding=(1, 1))
      (1): GroupNorm(128, 128, eps=1e-05, affine=True)
      (2): ReLU(inplace=True)
      (3): AvgPool2d(kernel_size=2, stride=2, padding=0)
      (4): Conv2d(128, 128, kernel_size=(3, 3), stride=(1, 1), padding=(1, 1))
      (5): GroupNorm(128, 128, eps=1e-05, affine=True)
      (6): ReLU(inplace=True)
      (7): AvgPool2d(kernel_size=2, stride=2, padding=0)
      (8): Conv2d(128, 128, kernel_size=(3, 3), stride=(1, 1), padding=(1, 1))
      (9): GroupNorm(128, 128, eps=1e-05, affine=True)
      (10): ReLU(inplace=True)
      (11): AvgPool2d(kernel_size=2, stride=2, padding=0)
    )
    (classifier): Linear(in_features=128, out_features=31, bias=True)
  )
  (pool_layer): Sequential(
    (0): AdaptiveAvgPool2d(output_size=(1, 1))
    (1): Flatten(start_dim=1, end_dim=-1)
  )
  (bottleneck): Sequential(
    (0): Linear(in_features=128, out_features=256, bias=True)
    (1): BatchNorm1d(256, eps=1e-05, momentum=0.1, affine=True, track_running_stats=True)
    (2): ReLU()
  )
  (head): Linear(in_features=256, out_features=31, bias=True)
)
torch.Size([2, 3, 32, 32])
ImageClassifier(
  (backbone): ConvNet(
    (features): Sequential(
      (0): Conv2d(3, 128, kernel_size=(3, 3), stride=(1, 1), padding=(1, 1))
      (1): GroupNorm(128, 128, eps=1e-05, affine=True)
      (2): ReLU(inplace=True)
      (3): AvgPool2d(kernel_size=2, stride=2, padding=0)
      (4): Conv2d(128, 128, kernel_size=(3, 3), stride=(1, 1), padding=(1, 1))
      (5): GroupNorm(128, 128, eps=1e-05, affine=True)
      (6): ReLU(inplace=True)
      (7): AvgPool2d(kernel_size=2, stride=2, padding=0)
      (8): Conv2d(128, 128, kernel_size=(3, 3), stride=(1, 1), padding=(1, 1))
      (9): GroupNorm(128, 128, eps=1e-05, affine=True)
      (10): ReLU(inplace=True)
      (11): AvgPool2d(kernel_size=2, stride=2, padding=0)
    )
    (classifier): Linear(in_features=128, out_features=31, bias=True)
  )
  (pool_layer): Sequential(
    (0): AdaptiveAvgPool2d(output_size=(1, 1))
    (1): Flatten(start_dim=1, end_dim=-1)
  )
  (bottleneck): Sequential(
    (0): Linear(in_features=128, out_features=256, bias=True)
    (1): BatchNorm1d(256, eps=1e-05, momentum=0.1, affine=True, track_running_stats=True)
    (2): ReLU()
  )
  (head): Linear(in_features=256, out_features=31, bias=True)
)
torch.Size([2, 3, 32, 32])
ImageClassifier(
…
      (9): GroupNorm(128, 128, eps=1e-05, affine=True)
      (10): ReLU(inplace=True)
      (11): AvgPool2d(kernel_size=2, stride=2, padding=0)
    )
    (classifier): Linear(in_features=128, out_features=31, bias=True)
  )
  (pool_layer): Sequential(
    (0): AdaptiveAvgPool2d(output_size=(1, 1))
    (1): Flatten(start_dim=1, end_dim=-1)
  )
  (bottleneck): Sequential(
    (0): Linear(in_features=128, out_features=256, bias=True)
    (1): BatchNorm1d(256, eps=1e-05, momentum=0.1, affine=True, track_running_stats=True)
    (2): ReLU()
  )
  (head): Linear(in_features=256, out_features=31, bias=True)
)
torch.Size([2, 3, 32, 32])
ImageClassifier(
  (backbone): ConvNet(
    (features): Sequential(
      (0): Conv2d(3, 128, kernel_size=(3, 3), stride=(1, 1), padding=(1, 1))
      (1): GroupNorm(128, 128, eps=1e-05, affine=True)
      (2): ReLU(inplace=True)
      (3): AvgPool2d(kernel_size=2, stride=2, padding=0)
      (4): Conv2d(128, 128, kernel_size=(3, 3), stride=(1, 1), padding=(1, 1))
      (5): GroupNorm(128, 128, eps=1e-05, affine=True)
      (6): ReLU(inplace=True)
      (7): AvgPool2d(kernel_size=2, stride=2, padding=0)
      (8): Conv2d(128, 128, kernel_size=(3, 3), stride=(1, 1), padding=(1, 1))
      (9): GroupNorm(128, 128, eps=1e-05, affine=True)
      (10): ReLU(inplace=True)
      (11): AvgPool2d(kernel_size=2, stride=2, padding=0)
    )
    (classifier): Linear(in_features=128, out_features=31, bias=True)
  )
  (pool_layer): Sequential(
    (0): AdaptiveAvgPool2d(output_size=(1, 1))
    (1): Flatten(start_dim=1, end_dim=-1)
  )
  (bottleneck): Sequential(
    (0): Linear(in_features=128, out_features=256, bias=True)
    (1): BatchNorm1d(256, eps=1e-05, momentum=0.1, affine=True, track_running_stats=True)
    (2): ReLU()
  )
  (head): Linear(in_features=256, out_features=31, bias=True)
)
torch.Size([2, 3, 32, 32])
ImageClassifier(
  (backbone): ConvNet(
    (features): Sequential(
      (0): Conv2d(3, 128, kernel_size=(3, 3), stride=(1, 1), padding=(1, 1))
      (1): GroupNorm(128, 128, eps=1e-05, affine=True)
      (2): ReLU(inplace=True)
      (3): AvgPool2d(kernel_size=2, stride=2, padding=0)
      (4): Conv2d(128, 128, kernel_size=(3, 3), stride=(1, 1), padding=(1, 1))
      (5): GroupNorm(128, 128, eps=1e-05, affine=True)
      (6): ReLU(inplace=True)
      (7): AvgPool2d(kernel_size=2, stride=2, padding=0)
      (8): Conv2d(128, 128, kernel_size=(3, 3), stride=(1, 1), padding=(1, 1))
      (9): GroupNorm(128, 128, eps=1e-05, affine=True)
      (10): ReLU(inplace=True)
      (11): AvgPool2d(kernel_size=2, stride=2, padding=0)
    )
    (classifier): Linear(in_features=128, out_features=31, bias=True)
  )
  (pool_layer): Sequential(
    (0): AdaptiveAvgPool2d(output_size=(1, 1))
    (1): Flatten(start_dim=1, end_dim=-1)
  )
  (bottleneck): Sequential(
    (0): Linear(in_features=128, out_features=256, bias=True)
    (1): BatchNorm1d(256, eps=1e-05, momentum=0.1, affine=True, track_running_stats=True)
    (2): ReLU()
  )
  (head): Linear(in_features=256, out_features=31, bias=True)
)
torch.Size([2, 3, 32, 32])
ImageClassifier(
  (backbone): ConvNet(
    (features): Sequential(
      (0): Conv2d(3, 128, kernel_size=(3, 3), stride=(1, 1), padding=(1, 1))
      (1): GroupNorm(128, 128, eps=1e-05, affine=True)
      (2): ReLU(inplace=True)
      (3): AvgPool2d(kernel_size=2, stride=2, padding=0)
      (4): Conv2d(128, 128, kernel_size=(3, 3), stride=(1, 1), padding=(1, 1))
      (5): GroupNorm(128, 128, eps=1e-05, affine=True)
      (6): ReLU(inplace=True)
      (7): AvgPool2d(kernel_size=2, stride=2, padding=0)
      (8): Conv2d(128, 128, kernel_size=(3, 3), stride=(1, 1), padding=(1, 1))
      (9): GroupNorm(128, 128, eps=1e-05, affine=True)
      (10): ReLU(inplace=True)
      (11): AvgPool2d(kernel_size=2, stride=2, padding=0)
    )
    (classifier): Linear(in_features=128, out_features=31, bias=True)
  )
  (pool_layer): Sequential(
    (0): AdaptiveAvgPool2d(output_size=(1, 1))
    (1): Flatten(start_dim=1, end_dim=-1)
  )
  (bottleneck): Sequential(
    (0): Linear(in_features=128, out_features=256, bias=True)
    (1): BatchNorm1d(256, eps=1e-05, momentum=0.1, affine=True, track_running_stats=True)
    (2): ReLU()
  )
  (head): Linear(in_features=256, out_features=31, bias=True)
)
torch.Size([2, 3, 32, 32])
ImageClassifier(
  (backbone): ConvNet(
    (features): Sequential(
      (0): Conv2d(3, 128, kernel_size=(3, 3), stride=(1, 1), padding=(1, 1))
      (1): GroupNorm(128, 128, eps=1e-05, affine=True)
      (2): ReLU(inplace=True)
      (3): AvgPool2d(kernel_size=2, stride=2, padding=0)
      (4): Conv2d(128, 128, kernel_size=(3, 3), stride=(1, 1), padding=(1, 1))
      (5): GroupNorm(128, 128, eps=1e-05, affine=True)
      (6): ReLU(inplace=True)
      (7): AvgPool2d(kernel_size=2, stride=2, padding=0)
      (8): Conv2d(128, 128, kernel_size=(3, 3), stride=(1, 1), padding=(1, 1))
      (9): GroupNorm(128, 128, eps=1e-05, affine=True)
      (10): ReLU(inplace=True)
      (11): AvgPool2d(kernel_size=2, stride=2, padding=0)
    )
    (classifier): Linear(in_features=128, out_features=31, bias=True)
  )
  (pool_layer): Sequential(
    (0): AdaptiveAvgPool2d(output_size=(1, 1))
    (1): Flatten(start_dim=1, end_dim=-1)
  )
  (bottleneck): Sequential(
    (0): Linear(in_features=128, out_features=256, bias=True)
    (1): BatchNorm1d(256, eps=1e-05, momentum=0.1, affine=True, track_running_stats=True)
    (2): ReLU()
  )
  (head): Linear(in_features=256, out_features=31, bias=True)
)
torch.Size([2, 3, 32, 32])
ImageClassifier(
  (backbone): ConvNet(
    (features): Sequential(
      (0): Conv2d(3, 128, kernel_size=(3, 3), stride=(1, 1), padding=(1, 1))
      (1): GroupNorm(128, 128, eps=1e-05, affine=True)
      (2): ReLU(inplace=True)
      (3): AvgPool2d(kernel_size=2, stride=2, padding=0)
      (4): Conv2d(128, 128, kernel_size=(3, 3), stride=(1, 1), padding=(1, 1))
      (5): GroupNorm(128, 128, eps=1e-05, affine=True)
      (6): ReLU(inplace=True)
      (7): AvgPool2d(kernel_size=2, stride=2, padding=0)
      (8): Conv2d(128, 128, kernel_size=(3, 3), stride=(1, 1), padding=(1, 1))
      (9): GroupNorm(128, 128, eps=1e-05, affine=True)
      (10): ReLU(inplace=True)
      (11): AvgPool2d(kernel_size=2, stride=2, padding=0)
    )
    (classifier): Linear(in_features=128, out_features=31, bias=True)
  )
  (pool_layer): Sequential(
    (0): AdaptiveAvgPool2d(output_size=(1, 1))
    (1): Flatten(start_dim=1, end_dim=-1)
  )
  (bottleneck): Sequential(
    (0): Linear(in_features=128, out_features=256, bias=True)
    (1): BatchNorm1d(256, eps=1e-05, momentum=0.1, affine=True, track_running_stats=True)
    (2): ReLU()
  )
  (head): Linear(in_features=256, out_features=31, bias=True)
)
Epoch: [0][ 500/1000]	Time  0.01 ( 0.01)	Data  0.00 ( 0.00)	Loss   8.04 (  6.78)	Cls Acc 0.0 (2.6)	Domain Acc 0.0 (79.6)
torch.Size([2, 3, 32, 32])
ImageClassifier(
  (backbone): ConvNet(
    (features): Sequential(
      (0): Conv2d(3, 128, kernel_size=(3, 3), stride=(1, 1), padding=(1, 1))
      (1): GroupNorm(128, 128, eps=1e-05, affine=True)
      (2): ReLU(inplace=True)
      (3): AvgPool2d(kernel_size=2, stride=2, padding=0)
      (4): Conv2d(128, 128, kernel_size=(3, 3), stride=(1, 1), padding=(1, 1))
      (5): GroupNorm(128, 128, eps=1e-05, affine=True)
      (6): ReLU(inplace=True)
      (7): AvgPool2d(kernel_size=2, stride=2, padding=0)
      (8): Conv2d(128, 128, kernel_size=(3, 3), stride=(1, 1), padding=(1, 1))
      (9): GroupNorm(128, 128, eps=1e-05, affine=True)
      (10): ReLU(inplace=True)
      (11): AvgPool2d(kernel_size=2, stride=2, padding=0)
    )
    (classifier): Linear(in_features=128, out_features=31, bias=True)
  )
  (pool_layer): Sequential(
    (0): AdaptiveAvgPool2d(output_size=(1, 1))
    (1): Flatten(start_dim=1, end_dim=-1)
  )
  (bottleneck): Sequential(
    (0): Linear(in_features=128, out_features=256, bias=True)
    (1): BatchNorm1d(256, eps=1e-05, momentum=0.1, affine=True, track_running_stats=True)
    (2): ReLU()
  )
  (head): Linear(in_features=256, out_features=31, bias=True)
)
torch.Size([2, 3, 32, 32])
ImageClassifier(
  (backbone): ConvNet(
    (features): Sequential(
      (0): Conv2d(3, 128, kernel_size=(3, 3), stride=(1, 1), padding=(1, 1))
      (1): GroupNorm(128, 128, eps=1e-05, affine=True)
      (2): ReLU(inplace=True)
      (3): AvgPool2d(kernel_size=2, stride=2, padding=0)
      (4): Conv2d(128, 128, kernel_size=(3, 3), stride=(1, 1), padding=(1, 1))
      (5): GroupNorm(128, 128, eps=1e-05, affine=True)
      (6): ReLU(inplace=True)
      (7): AvgPool2d(kernel_size=2, stride=2, padding=0)
      (8): Conv2d(128, 128, kernel_size=(3, 3), stride=(1, 1), padding=(1, 1))
      (9): GroupNorm(128, 128, eps=1e-05, affine=True)
      (10): ReLU(inplace=True)
      (11): AvgPool2d(kernel_size=2, stride=2, padding=0)
    )
    (classifier): Linear(in_features=128, out_features=31, bias=True)
  )
  (pool_layer): Sequential(
    (0): AdaptiveAvgPool2d(output_size=(1, 1))
    (1): Flatten(start_dim=1, end_dim=-1)
  )
  (bottleneck): Sequential(
    (0): Linear(in_features=128, out_features=256, bias=True)
    (1): BatchNorm1d(256, eps=1e-05, momentum=0.1, affine=True, track_running_stats=True)
    (2): ReLU()
  )
  (head): Linear(in_features=256, out_features=31, bias=True)
)
torch.Size([2, 3, 32, 32])
ImageClassifier(
  (backbone): ConvNet(
    (features): Sequential(
      (0): Conv2d(3, 128, kernel_size=(3, 3), stride=(1, 1), padding=(1, 1))
      (1): GroupNorm(128, 128, eps=1e-05, affine=True)
      (2): ReLU(inplace=True)
      (3): AvgPool2d(kernel_size=2, stride=2, padding=0)
      (4): Conv2d(128, 128, kernel_size=(3, 3), stride=(1, 1), padding=(1, 1))
      (5): GroupNorm(128, 128, eps=1e-05, affine=True)
      (6): ReLU(inplace=True)
      (7): AvgPool2d(kernel_size=2, stride=2, padding=0)
      (8): Conv2d(128, 128, kernel_size=(3, 3), stride=(1, 1), padding=(1, 1))
      (9): GroupNorm(128, 128, eps=1e-05, affine=True)
      (10): ReLU(inplace=True)
      (11): AvgPool2d(kernel_size=2, stride=2, padding=0)
    )
    (classifier): Linear(in_features=128, out_features=31, bias=True)
  )
  (pool_layer): Sequential(
    (0): AdaptiveAvgPool2d(output_size=(1, 1))
    (1): Flatten(start_dim=1, end_dim=-1)
  )
  (bottleneck): Sequential(
    (0): Linear(in_features=128, out_features=256, bias=True)
    (1): BatchNorm1d(256, eps=1e-05, momentum=0.1, affine=True, track_running_stats=True)
    (2): ReLU()
  )
  (head): Linear(in_features=256, out_features=31, bias=True)
)
torch.Size([2, 3, 32, 32])
ImageClassifier(
  (backbone): ConvNet(
    (features): Sequential(
      (0): Conv2d(3, 128, kernel_size=(3, 3), stride=(1, 1), padding=(1, 1))
      (1): GroupNorm(128, 128, eps=1e-05, affine=True)
      (2): ReLU(inplace=True)
      (3): AvgPool2d(kernel_size=2, stride=2, padding=0)
      (4): Conv2d(128, 128, kernel_size=(3, 3), stride=(1, 1), padding=(1, 1))
      (5): GroupNorm(128, 128, eps=1e-05, affine=True)
      (6): ReLU(inplace=True)
      (7): AvgPool2d(kernel_size=2, stride=2, padding=0)
      (8): Conv2d(128, 128, kernel_size=(3, 3), stride=(1, 1), padding=(1, 1))
      (9): GroupNorm(128, 128, eps=1e-05, affine=True)
      (10): ReLU(inplace=True)
      (11): AvgPool2d(kernel_size=2, stride=2, padding=0)
    )
    (classifier): Linear(in_features=128, out_features=31, bias=True)
  )
  (pool_layer): Sequential(
    (0): AdaptiveAvgPool2d(output_size=(1, 1))
    (1): Flatten(start_dim=1, end_dim=-1)
  )
  (bottleneck): Sequential(
    (0): Linear(in_features=128, out_features=256, bias=True)
    (1): BatchNorm1d(256, eps=1e-05, momentum=0.1, affine=True, track_running_stats=True)
    (2): ReLU()
  )
  (head): Linear(in_features=256, out_features=31, bias=True)
)
torch.Size([2, 3, 32, 32])
ImageClassifier(
  (backbone): ConvNet(
    (features): Sequential(
      (0): Conv2d(3, 128, kernel_size=(3, 3), stride=(1, 1), padding=(1, 1))
      (1): GroupNorm(128, 128, eps=1e-05, affine=True)
      (2): ReLU(inplace=True)
      (3): AvgPool2d(kernel_size=2, stride=2, padding=0)
      (4): Conv2d(128, 128, kernel_size=(3, 3), stride=(1, 1), padding=(1, 1))
      (5): GroupNorm(128, 128, eps=1e-05, affine=True)
      (6): ReLU(inplace=True)
      (7): AvgPool2d(kernel_size=2, stride=2, padding=0)
      (8): Conv2d(128, 128, kernel_size=(3, 3), stride=(1, 1), padding=(1, 1))
      (9): GroupNorm(128, 128, eps=1e-05, affine=True)
      (10): ReLU(inplace=True)
      (11): AvgPool2d(kernel_size=2, stride=2, padding=0)
    )
    (classifier): Linear(in_features=128, out_features=31, bias=True)
  )
  (pool_layer): Sequential(
    (0): AdaptiveAvgPool2d(output_size=(1, 1))
    (1): Flatten(start_dim=1, end_dim=-1)
  )
  (bottleneck): Sequential(
    (0): Linear(in_features=128, out_features=256, bias=True)
    (1): BatchNorm1d(256, eps=1e-05, momentum=0.1, affine=True, track_running_stats=True)
    (2): ReLU()
  )
  (head): Linear(in_features=256, out_features=31, bias=True)
)
torch.Size([2, 3, 32, 32])
ImageClassifier(
  (backbone): ConvNet(
    (features): Sequential(
      (0): Conv2d(3, 128, kernel_size=(3, 3), stride=(1, 1), padding=(1, 1))
      (1): GroupNorm(128, 128, eps=1e-05, affine=True)
      (2): ReLU(inplace=True)
      (3): AvgPool2d(kernel_size=2, stride=2, padding=0)
      (4): Conv2d(128, 128, kernel_size=(3, 3), stride=(1, 1), padding=(1, 1))
      (5): GroupNorm(128, 128, eps=1e-05, affine=True)
      (6): ReLU(inplace=True)
      (7): AvgPool2d(kernel_size=2, stride=2, padding=0)
      (8): Conv2d(128, 128, kernel_size=(3, 3), stride=(1, 1), padding=(1, 1))
      (9): GroupNorm(128, 128, eps=1e-05, affine=True)
      (10): ReLU(inplace=True)
      (11): AvgPool2d(kernel_size=2, stride=2, padding=0)
    )
    (classifier): Linear(in_features=128, out_features=31, bias=True)
  )
  (pool_layer): Sequential(
    (0): AdaptiveAvgPool2d(output_size=(1, 1))
    (1): Flatten(start_dim=1, end_dim=-1)
  )
  (bottleneck): Sequential(
    (0): Linear(in_features=128, out_features=256, bias=True)
    (1): BatchNorm1d(256, eps=1e-05, momentum=0.1, affine=True, track_running_stats=True)
    (2): ReLU()
  )
  (head): Linear(in_features=256, out_features=31, bias=True)
)
torch.Size([2, 3, 32, 32])
ImageClassifier(
  (backbone): ConvNet(
    (features): Sequential(
      (0): Conv2d(3, 128, kernel_size=(3, 3), stride=(1, 1), padding=(1, 1))
      (1): GroupNorm(128, 128, eps=1e-05, affine=True)
      (2): ReLU(inplace=True)
      (3): AvgPool2d(kernel_size=2, stride=2, padding=0)
      (4): Conv2d(128, 128, kernel_size=(3, 3), stride=(1, 1), padding=(1, 1))
      (5): GroupNorm(128, 128, eps=1e-05, affine=True)
      (6): ReLU(inplace=True)
      (7): AvgPool2d(kernel_size=2, stride=2, padding=0)
      (8): Conv2d(128, 128, kernel_size=(3, 3), stride=(1, 1), padding=(1, 1))
      (9): GroupNorm(128, 128, eps=1e-05, affine=True)
      (10): ReLU(inplace=True)
      (11): AvgPool2d(kernel_size=2, stride=2, padding=0)
    )
    (classifier): Linear(in_features=128, out_features=31, bias=True)
  )
  (pool_layer): Sequential(
    (0): AdaptiveAvgPool2d(output_size=(1, 1))
    (1): Flatten(start_dim=1, end_dim=-1)
  )
  (bottleneck): Sequential(
    (0): Linear(in_features=128, out_features=256, bias=True)
    (1): BatchNorm1d(256, eps=1e-05, momentum=0.1, affine=True, track_running_stats=True)
    (2): ReLU()
  )
  (head): Linear(in_features=256, out_features=31, bias=True)
)
torch.Size([2, 3, 32, 32])
ImageClassifier(
  (backbone): ConvNet(
    (features): Sequential(
      (0): Conv2d(3, 128, kernel_size=(3, 3), stride=(1, 1), padding=(1, 1))
      (1): GroupNorm(128, 128, eps=1e-05, affine=True)
      (2): ReLU(inplace=True)
      (3): AvgPool2d(kernel_size=2, stride=2, padding=0)
      (4): Conv2d(128, 128, kernel_size=(3, 3), stride=(1, 1), padding=(1, 1))
      (5): GroupNorm(128, 128, eps=1e-05, affine=True)
      (6): ReLU(inplace=True)
      (7): AvgPool2d(kernel_size=2, stride=2, padding=0)
      (8): Conv2d(128, 128, kernel_size=(3, 3), stride=(1, 1), padding=(1, 1))
      (9): GroupNorm(128, 128, eps=1e-05, affine=True)
      (10): ReLU(inplace=True)
      (11): AvgPool2d(kernel_size=2, stride=2, padding=0)
    )
    (classifier): Linear(in_features=128, out_features=31, bias=True)
  )
  (pool_layer): Sequential(
    (0): AdaptiveAvgPool2d(output_size=(1, 1))
    (1): Flatten(start_dim=1, end_dim=-1)
  )
  (bottleneck): Sequential(
    (0): Linear(in_features=128, out_features=256, bias=True)
    (1): BatchNorm1d(256, eps=1e-05, momentum=0.1, affine=True, track_running_stats=True)
    (2): ReLU()
  )
  (head): Linear(in_features=256, out_features=31, bias=True)
)
torch.Size([2, 3, 32, 32])
ImageClassifier(
  (backbone): ConvNet(
    (features): Sequential(
      (0): Conv2d(3, 128, kernel_size=(3, 3), stride=(1, 1), padding=(1, 1))
      (1): GroupNorm(128, 128, eps=1e-05, affine=True)
      (2): ReLU(inplace=True)
      (3): AvgPool2d(kernel_size=2, stride=2, padding=0)
      (4): Conv2d(128, 128, kernel_size=(3, 3), stride=(1, 1), padding=(1, 1))
      (5): GroupNorm(128, 128, eps=1e-05, affine=True)
      (6): ReLU(inplace=True)
      (7): AvgPool2d(kernel_size=2, stride=2, padding=0)
      (8): Conv2d(128, 128, kernel_size=(3, 3), stride=(1, 1), padding=(1, 1))
      (9): GroupNorm(128, 128, eps=1e-05, affine=True)
      (10): ReLU(inplace=True)
      (11): AvgPool2d(kernel_size=2, stride=2, padding=0)
    )
    (classifier): Linear(in_features=128, out_features=31, bias=True)
  )
  (pool_layer): Sequential(
    (0): AdaptiveAvgPool2d(output_size=(1, 1))
    (1): Flatten(start_dim=1, end_dim=-1)
  )
  (bottleneck): Sequential(
    (0): Linear(in_features=128, out_features=256, bias=True)
    (1): BatchNorm1d(256, eps=1e-05, momentum=0.1, affine=True, track_running_stats=True)
    (2): ReLU()
  )
  (head): Linear(in_features=256, out_features=31, bias=True)
)
torch.Size([2, 3, 32, 32])
ImageClassifier(
  (backbone): ConvNet(
    (features): Sequential(
      (0): Conv2d(3, 128, kernel_size=(3, 3), stride=(1, 1), padding=(1, 1))
      (1): GroupNorm(128, 128, eps=1e-05, affine=True)
      (2): ReLU(inplace=True)
      (3): AvgPool2d(kernel_size=2, stride=2, padding=0)
      (4): Conv2d(128, 128, kernel_size=(3, 3), stride=(1, 1), padding=(1, 1))
      (5): GroupNorm(128, 128, eps=1e-05, affine=True)
      (6): ReLU(inplace=True)
      (7): AvgPool2d(kernel_size=2, stride=2, padding=0)
      (8): Conv2d(128, 128, kernel_size=(3, 3), stride=(1, 1), padding=(1, 1))
      (9): GroupNorm(128, 128, eps=1e-05, affine=True)
      (10): ReLU(inplace=True)
      (11): AvgPool2d(kernel_size=2, stride=2, padding=0)
    )
    (classifier): Linear(in_features=128, out_features=31, bias=True)
  )
  (pool_layer): Sequential(
    (0): AdaptiveAvgPool2d(output_size=(1, 1))
    (1): Flatten(start_dim=1, end_dim=-1)
  )
  (bottleneck): Sequential(
    (0): Linear(in_features=128, out_features=256, bias=True)
    (1): BatchNorm1d(256, eps=1e-05, momentum=0.1, affine=True, track_running_stats=True)
    (2): ReLU()
  )
  (head): Linear(in_features=256, out_features=31, bias=True)
)
torch.Size([2, 3, 32, 32])
ImageClassifier(
  (backbone): ConvNet(
    (features): Sequential(
      (0): Conv2d(3, 128, kernel_size=(3, 3), stride=(1, 1), padding=(1, 1))
      (1): GroupNorm(128, 128, eps=1e-05, affine=True)
      (2): ReLU(inplace=True)
      (3): AvgPool2d(kernel_size=2, stride=2, padding=0)
      (4): Conv2d(128, 128, kernel_size=(3, 3), stride=(1, 1), padding=(1, 1))
      (5): GroupNorm(128, 128, eps=1e-05, affine=True)
      (6): ReLU(inplace=True)
      (7): AvgPool2d(kernel_size=2, stride=2, padding=0)
      (8): Conv2d(128, 128, kernel_size=(3, 3), stride=(1, 1), padding=(1, 1))
      (9): GroupNorm(128, 128, eps=1e-05, affine=True)
      (10): ReLU(inplace=True)
      (11): AvgPool2d(kernel_size=2, stride=2, padding=0)
    )
    (classifier): Linear(in_features=128, out_features=31, bias=True)
  )
  (pool_layer): Sequential(
    (0): AdaptiveAvgPool2d(output_size=(1, 1))
    (1): Flatten(start_dim=1, end_dim=-1)
  )
  (bottleneck): Sequential(
    (0): Linear(in_features=128, out_features=256, bias=True)
    (1): BatchNorm1d(256, eps=1e-05, momentum=0.1, affine=True, track_running_stats=True)
    (2): ReLU()
  )
  (head): Linear(in_features=256, out_features=31, bias=True)
)
torch.Size([2, 3, 32, 32])
ImageClassifier(
  (backbone): ConvNet(
    (features): Sequential(
      (0): Conv2d(3, 128, kernel_size=(3, 3), stride=(1, 1), padding=(1, 1))
      (1): GroupNorm(128, 128, eps=1e-05, affine=True)
      (2): ReLU(inplace=True)
      (3): AvgPool2d(kernel_size=2, stride=2, padding=0)
      (4): Conv2d(128, 128, kernel_size=(3, 3), stride=(1, 1), padding=(1, 1))
      (5): GroupNorm(128, 128, eps=1e-05, affine=True)
      (6): ReLU(inplace=True)
      (7): AvgPool2d(kernel_size=2, stride=2, padding=0)
      (8): Conv2d(128, 128, kernel_size=(3, 3), stride=(1, 1), padding=(1, 1))
      (9): GroupNorm(128, 128, eps=1e-05, affine=True)
      (10): ReLU(inplace=True)
      (11): AvgPool2d(kernel_size=2, stride=2, padding=0)
    )
    (classifier): Linear(in_features=128, out_features=31, bias=True)
  )
  (pool_layer): Sequential(
    (0): AdaptiveAvgPool2d(output_size=(1, 1))
    (1): Flatten(start_dim=1, end_dim=-1)
  )
  (bottleneck): Sequential(
    (0): Linear(in_features=128, out_features=256, bias=True)
    (1): BatchNorm1d(256, eps=1e-05, momentum=0.1, affine=True, track_running_stats=True)
    (2): ReLU()
  )
  (head): Linear(in_features=256, out_features=31, bias=True)
)
torch.Size([2, 3, 32, 32])
ImageClassifier(
  (backbone): ConvNet(
    (features): Sequential(
      (0): Conv2d(3, 128, kernel_size=(3, 3), stride=(1, 1), padding=(1, 1))
      (1): GroupNorm(128, 128, eps=1e-05, affine=True)
      (2): ReLU(inplace=True)
      (3): AvgPool2d(kernel_size=2, stride=2, padding=0)
      (4): Conv2d(128, 128, kernel_size=(3, 3), stride=(1, 1), padding=(1, 1))
      (5): GroupNorm(128, 128, eps=1e-05, affine=True)
      (6): ReLU(inplace=True)
      (7): AvgPool2d(kernel_size=2, stride=2, padding=0)
      (8): Conv2d(128, 128, kernel_size=(3, 3), stride=(1, 1), padding=(1, 1))
      (9): GroupNorm(128, 128, eps=1e-05, affine=True)
      (10): ReLU(inplace=True)
      (11): AvgPool2d(kernel_size=2, stride=2, padding=0)
    )
    (classifier): Linear(in_features=128, out_features=31, bias=True)
  )
  (pool_layer): Sequential(
    (0): AdaptiveAvgPool2d(output_size=(1, 1))
    (1): Flatten(start_dim=1, end_dim=-1)
  )
  (bottleneck): Sequential(
    (0): Linear(in_features=128, out_features=256, bias=True)
    (1): BatchNorm1d(256, eps=1e-05, momentum=0.1, affine=True, track_running_stats=True)
    (2): ReLU()
  )
  (head): Linear(in_features=256, out_features=31, bias=True)
)
torch.Size([2, 3, 32, 32])
ImageClassifier(
  (backbone): ConvNet(
    (features): Sequential(
      (0): Conv2d(3, 128, kernel_size=(3, 3), stride=(1, 1), padding=(1, 1))
      (1): GroupNorm(128, 128, eps=1e-05, affine=True)
      (2): ReLU(inplace=True)
      (3): AvgPool2d(kernel_size=2, stride=2, padding=0)
      (4): Conv2d(128, 128, kernel_size=(3, 3), stride=(1, 1), padding=(1, 1))
      (5): GroupNorm(128, 128, eps=1e-05, affine=True)
      (6): ReLU(inplace=True)
      (7): AvgPool2d(kernel_size=2, stride=2, padding=0)
      (8): Conv2d(128, 128, kernel_size=(3, 3), stride=(1, 1), padding=(1, 1))
      (9): GroupNorm(128, 128, eps=1e-05, affine=True)
      (10): ReLU(inplace=True)
      (11): AvgPool2d(kernel_size=2, stride=2, padding=0)
    )
    (classifier): Linear(in_features=128, out_features=31, bias=True)
  )
  (pool_layer): Sequential(
    (0): AdaptiveAvgPool2d(output_size=(1, 1))
    (1): Flatten(start_dim=1, end_dim=-1)
  )
  (bottleneck): Sequential(
    (0): Linear(in_features=128, out_features=256, bias=True)
    (1): BatchNorm1d(256, eps=1e-05, momentum=0.1, affine=True, track_running_stats=True)
    (2): ReLU()
  )
  (head): Linear(in_features=256, out_features=31, bias=True)
)
torch.Size([2, 3, 32, 32])
ImageClassifier(
  (backbone): ConvNet(
    (features): Sequential(
      (0): Conv2d(3, 128, kernel_size=(3, 3), stride=(1, 1), padding=(1, 1))
      (1): GroupNorm(128, 128, eps=1e-05, affine=True)
      (2): ReLU(inplace=True)
      (3): AvgPool2d(kernel_size=2, stride=2, padding=0)
      (4): Conv2d(128, 128, kernel_size=(3, 3), stride=(1, 1), padding=(1, 1))
      (5): GroupNorm(128, 128, eps=1e-05, affine=True)
      (6): ReLU(inplace=True)
      (7): AvgPool2d(kernel_size=2, stride=2, padding=0)
      (8): Conv2d(128, 128, kernel_size=(3, 3), stride=(1, 1), padding=(1, 1))
      (9): GroupNorm(128, 128, eps=1e-05, affine=True)
      (10): ReLU(inplace=True)
      (11): AvgPool2d(kernel_size=2, stride=2, padding=0)
    )
    (classifier): Linear(in_features=128, out_features=31, bias=True)
  )
  (pool_layer): Sequential(
    (0): AdaptiveAvgPool2d(output_size=(1, 1))
    (1): Flatten(start_dim=1, end_dim=-1)
  )
  (bottleneck): Sequential(
    (0): Linear(in_features=128, out_features=256, bias=True)
    (1): BatchNorm1d(256, eps=1e-05, momentum=0.1, affine=True, track_running_stats=True)
    (2): ReLU()
  )
  (head): Linear(in_features=256, out_features=31, bias=True)
)
torch.Size([2, 3, 32, 32])
ImageClassifier(
  (backbone): ConvNet(
    (features): Sequential(
      (0): Conv2d(3, 128, kernel_size=(3, 3), stride=(1, 1), padding=(1, 1))
      (1): GroupNorm(128, 128, eps=1e-05, affine=True)
      (2): ReLU(inplace=True)
      (3): AvgPool2d(kernel_size=2, stride=2, padding=0)
      (4): Conv2d(128, 128, kernel_size=(3, 3), stride=(1, 1), padding=(1, 1))
      (5): GroupNorm(128, 128, eps=1e-05, affine=True)
      (6): ReLU(inplace=True)
      (7): AvgPool2d(kernel_size=2, stride=2, padding=0)
      (8): Conv2d(128, 128, kernel_size=(3, 3), stride=(1, 1), padding=(1, 1))
      (9): GroupNorm(128, 128, eps=1e-05, affine=True)
      (10): ReLU(inplace=True)
      (11): AvgPool2d(kernel_size=2, stride=2, padding=0)
    )
    (classifier): Linear(in_features=128, out_features=31, bias=True)
  )
  (pool_layer): Sequential(
    (0): AdaptiveAvgPool2d(output_size=(1, 1))
    (1): Flatten(start_dim=1, end_dim=-1)
  )
  (bottleneck): Sequential(
    (0): Linear(in_features=128, out_features=256, bias=True)
    (1): BatchNorm1d(256, eps=1e-05, momentum=0.1, affine=True, track_running_stats=True)
    (2): ReLU()
  )
  (head): Linear(in_features=256, out_features=31, bias=True)
)
torch.Size([2, 3, 32, 32])
ImageClassifier(
  (backbone): ConvNet(
    (features): Sequential(
      (0): Conv2d(3, 128, kernel_size=(3, 3), stride=(1, 1), padding=(1, 1))
      (1): GroupNorm(128, 128, eps=1e-05, affine=True)
      (2): ReLU(inplace=True)
      (3): AvgPool2d(kernel_size=2, stride=2, padding=0)
      (4): Conv2d(128, 128, kernel_size=(3, 3), stride=(1, 1), padding=(1, 1))
      (5): GroupNorm(128, 128, eps=1e-05, affine=True)
      (6): ReLU(inplace=True)
      (7): AvgPool2d(kernel_size=2, stride=2, padding=0)
      (8): Conv2d(128, 128, kernel_size=(3, 3), stride=(1, 1), padding=(1, 1))
      (9): GroupNorm(128, 128, eps=1e-05, affine=True)
      (10): ReLU(inplace=True)
      (11): AvgPool2d(kernel_size=2, stride=2, padding=0)
    )
    (classifier): Linear(in_features=128, out_features=31, bias=True)
  )
  (pool_layer): Sequential(
    (0): AdaptiveAvgPool2d(output_size=(1, 1))
    (1): Flatten(start_dim=1, end_dim=-1)
  )
  (bottleneck): Sequential(
    (0): Linear(in_features=128, out_features=256, bias=True)
    (1): BatchNorm1d(256, eps=1e-05, momentum=0.1, affine=True, track_running_stats=True)
    (2): ReLU()
  )
  (head): Linear(in_features=256, out_features=31, bias=True)
)
torch.Size([2, 3, 32, 32])
ImageClassifier(
  (backbone): ConvNet(
    (features): Sequential(
      (0): Conv2d(3, 128, kernel_size=(3, 3), stride=(1, 1), padding=(1, 1))
      (1): GroupNorm(128, 128, eps=1e-05, affine=True)
      (2): ReLU(inplace=True)
      (3): AvgPool2d(kernel_size=2, stride=2, padding=0)
      (4): Conv2d(128, 128, kernel_size=(3, 3), stride=(1, 1), padding=(1, 1))
      (5): GroupNorm(128, 128, eps=1e-05, affine=True)
      (6): ReLU(inplace=True)
      (7): AvgPool2d(kernel_size=2, stride=2, padding=0)
      (8): Conv2d(128, 128, kernel_size=(3, 3), stride=(1, 1), padding=(1, 1))
      (9): GroupNorm(128, 128, eps=1e-05, affine=True)
      (10): ReLU(inplace=True)
      (11): AvgPool2d(kernel_size=2, stride=2, padding=0)
    )
    (classifier): Linear(in_features=128, out_features=31, bias=True)
  )
  (pool_layer): Sequential(
    (0): AdaptiveAvgPool2d(output_size=(1, 1))
    (1): Flatten(start_dim=1, end_dim=-1)
  )
  (bottleneck): Sequential(
    (0): Linear(in_features=128, out_features=256, bias=True)
    (1): BatchNorm1d(256, eps=1e-05, momentum=0.1, affine=True, track_running_stats=True)
    (2): ReLU()
  )
  (head): Linear(in_features=256, out_features=31, bias=True)
)
torch.Size([2, 3, 32, 32])
ImageClassifier(
  (backbone): ConvNet(
    (features): Sequential(
      (0): Conv2d(3, 128, kernel_size=(3, 3), stride=(1, 1), padding=(1, 1))
      (1): GroupNorm(128, 128, eps=1e-05, affine=True)
      (2): ReLU(inplace=True)
      (3): AvgPool2d(kernel_size=2, stride=2, padding=0)
      (4): Conv2d(128, 128, kernel_size=(3, 3), stride=(1, 1), padding=(1, 1))
      (5): GroupNorm(128, 128, eps=1e-05, affine=True)
      (6): ReLU(inplace=True)
      (7): AvgPool2d(kernel_size=2, stride=2, padding=0)
      (8): Conv2d(128, 128, kernel_size=(3, 3), stride=(1, 1), padding=(1, 1))
      (9): GroupNorm(128, 128, eps=1e-05, affine=True)
      (10): ReLU(inplace=True)
      (11): AvgPool2d(kernel_size=2, stride=2, padding=0)
    )
    (classifier): Linear(in_features=128, out_features=31, bias=True)
  )
  (pool_layer): Sequential(
    (0): AdaptiveAvgPool2d(output_size=(1, 1))
    (1): Flatten(start_dim=1, end_dim=-1)
  )
  (bottleneck): Sequential(
    (0): Linear(in_features=128, out_features=256, bias=True)
    (1): BatchNorm1d(256, eps=1e-05, momentum=0.1, affine=True, track_running_stats=True)
    (2): ReLU()
  )
  (head): Linear(in_features=256, out_features=31, bias=True)
)
torch.Size([2, 3, 32, 32])
ImageClassifier(
  (backbone): ConvNet(
    (features): Sequential(
      (0): Conv2d(3, 128, kernel_size=(3, 3), stride=(1, 1), padding=(1, 1))
      (1): GroupNorm(128, 128, eps=1e-05, affine=True)
      (2): ReLU(inplace=True)
      (3): AvgPool2d(kernel_size=2, stride=2, padding=0)
      (4): Conv2d(128, 128, kernel_size=(3, 3), stride=(1, 1), padding=(1, 1))
      (5): GroupNorm(128, 128, eps=1e-05, affine=True)
      (6): ReLU(inplace=True)
      (7): AvgPool2d(kernel_size=2, stride=2, padding=0)
      (8): Conv2d(128, 128, kernel_size=(3, 3), stride=(1, 1), padding=(1, 1))
      (9): GroupNorm(128, 128, eps=1e-05, affine=True)
      (10): ReLU(inplace=True)
      (11): AvgPool2d(kernel_size=2, stride=2, padding=0)
    )
    (classifier): Linear(in_features=128, out_features=31, bias=True)
  )
  (pool_layer): Sequential(
    (0): AdaptiveAvgPool2d(output_size=(1, 1))
    (1): Flatten(start_dim=1, end_dim=-1)
  )
  (bottleneck): Sequential(
    (0): Linear(in_features=128, out_features=256, bias=True)
    (1): BatchNorm1d(256, eps=1e-05, momentum=0.1, affine=True, track_running_stats=True)
    (2): ReLU()
  )
  (head): Linear(in_features=256, out_features=31, bias=True)
)
torch.Size([2, 3, 32, 32])
ImageClassifier(
  (backbone): ConvNet(
    (features): Sequential(
      (0): Conv2d(3, 128, kernel_size=(3, 3), stride=(1, 1), padding=(1, 1))
      (1): GroupNorm(128, 128, eps=1e-05, affine=True)
      (2): ReLU(inplace=True)
      (3): AvgPool2d(kernel_size=2, stride=2, padding=0)
      (4): Conv2d(128, 128, kernel_size=(3, 3), stride=(1, 1), padding=(1, 1))
      (5): GroupNorm(128, 128, eps=1e-05, affine=True)
      (6): ReLU(inplace=True)
      (7): AvgPool2d(kernel_size=2, stride=2, padding=0)
      (8): Conv2d(128, 128, kernel_size=(3, 3), stride=(1, 1), padding=(1, 1))
      (9): GroupNorm(128, 128, eps=1e-05, affine=True)
      (10): ReLU(inplace=True)
      (11): AvgPool2d(kernel_size=2, stride=2, padding=0)
    )
    (classifier): Linear(in_features=128, out_features=31, bias=True)
  )
  (pool_layer): Sequential(
    (0): AdaptiveAvgPool2d(output_size=(1, 1))
    (1): Flatten(start_dim=1, end_dim=-1)
  )
  (bottleneck): Sequential(
    (0): Linear(in_features=128, out_features=256, bias=True)
    (1): BatchNorm1d(256, eps=1e-05, momentum=0.1, affine=True, track_running_stats=True)
    (2): ReLU()
  )
  (head): Linear(in_features=256, out_features=31, bias=True)
)
torch.Size([2, 3, 32, 32])
ImageClassifier(
  (backbone): ConvNet(
    (features): Sequential(
      (0): Conv2d(3, 128, kernel_size=(3, 3), stride=(1, 1), padding=(1, 1))
      (1): GroupNorm(128, 128, eps=1e-05, affine=True)
      (2): ReLU(inplace=True)
      (3): AvgPool2d(kernel_size=2, stride=2, padding=0)
      (4): Conv2d(128, 128, kernel_size=(3, 3), stride=(1, 1), padding=(1, 1))
      (5): GroupNorm(128, 128, eps=1e-05, affine=True)
      (6): ReLU(inplace=True)
      (7): AvgPool2d(kernel_size=2, stride=2, padding=0)
      (8): Conv2d(128, 128, kernel_size=(3, 3), stride=(1, 1), padding=(1, 1))
      (9): GroupNorm(128, 128, eps=1e-05, affine=True)
      (10): ReLU(inplace=True)
      (11): AvgPool2d(kernel_size=2, stride=2, padding=0)
    )
    (classifier): Linear(in_features=128, out_features=31, bias=True)
  )
  (pool_layer): Sequential(
    (0): AdaptiveAvgPool2d(output_size=(1, 1))
    (1): Flatten(start_dim=1, end_dim=-1)
  )
  (bottleneck): Sequential(
    (0): Linear(in_features=128, out_features=256, bias=True)
    (1): BatchNorm1d(256, eps=1e-05, momentum=0.1, affine=True, track_running_stats=True)
    (2): ReLU()
  )
  (head): Linear(in_features=256, out_features=31, bias=True)
)
torch.Size([2, 3, 32, 32])
ImageClassifier(
  (backbone): ConvNet(
    (features): Sequential(
      (0): Conv2d(3, 128, kernel_size=(3, 3), stride=(1, 1), padding=(1, 1))
      (1): GroupNorm(128, 128, eps=1e-05, affine=True)
      (2): ReLU(inplace=True)
      (3): AvgPool2d(kernel_size=2, stride=2, padding=0)
      (4): Conv2d(128, 128, kernel_size=(3, 3), stride=(1, 1), padding=(1, 1))
      (5): GroupNorm(128, 128, eps=1e-05, affine=True)
      (6): ReLU(inplace=True)
      (7): AvgPool2d(kernel_size=2, stride=2, padding=0)
      (8): Conv2d(128, 128, kernel_size=(3, 3), stride=(1, 1), padding=(1, 1))
      (9): GroupNorm(128, 128, eps=1e-05, affine=True)
      (10): ReLU(inplace=True)
      (11): AvgPool2d(kernel_size=2, stride=2, padding=0)
    )
    (classifier): Linear(in_features=128, out_features=31, bias=True)
  )
  (pool_layer): Sequential(
    (0): AdaptiveAvgPool2d(output_size=(1, 1))
    (1): Flatten(start_dim=1, end_dim=-1)
  )
  (bottleneck): Sequential(
    (0): Linear(in_features=128, out_features=256, bias=True)
    (1): BatchNorm1d(256, eps=1e-05, momentum=0.1, affine=True, track_running_stats=True)
    (2): ReLU()
  )
  (head): Linear(in_features=256, out_features=31, bias=True)
)
torch.Size([2, 3, 32, 32])
ImageClassifier(
  (backbone): ConvNet(
    (features): Sequential(
      (0): Conv2d(3, 128, kernel_size=(3, 3), stride=(1, 1), padding=(1, 1))
      (1): GroupNorm(128, 128, eps=1e-05, affine=True)
      (2): ReLU(inplace=True)
      (3): AvgPool2d(kernel_size=2, stride=2, padding=0)
      (4): Conv2d(128, 128, kernel_size=(3, 3), stride=(1, 1), padding=(1, 1))
      (5): GroupNorm(128, 128, eps=1e-05, affine=True)
      (6): ReLU(inplace=True)
      (7): AvgPool2d(kernel_size=2, stride=2, padding=0)
      (8): Conv2d(128, 128, kernel_size=(3, 3), stride=(1, 1), padding=(1, 1))
      (9): GroupNorm(128, 128, eps=1e-05, affine=True)
      (10): ReLU(inplace=True)
      (11): AvgPool2d(kernel_size=2, stride=2, padding=0)
    )
    (classifier): Linear(in_features=128, out_features=31, bias=True)
  )
  (pool_layer): Sequential(
    (0): AdaptiveAvgPool2d(output_size=(1, 1))
    (1): Flatten(start_dim=1, end_dim=-1)
  )
  (bottleneck): Sequential(
    (0): Linear(in_features=128, out_features=256, bias=True)
    (1): BatchNorm1d(256, eps=1e-05, momentum=0.1, affine=True, track_running_stats=True)
    (2): ReLU()
  )
  (head): Linear(in_features=256, out_features=31, bias=True)
)
torch.Size([2, 3, 32, 32])
ImageClassifier(
  (backbone): ConvNet(
    (features): Sequential(
      (0): Conv2d(3, 128, kernel_size=(3, 3), stride=(1, 1), padding=(1, 1))
      (1): GroupNorm(128, 128, eps=1e-05, affine=True)
      (2): ReLU(inplace=True)
      (3): AvgPool2d(kernel_size=2, stride=2, padding=0)
      (4): Conv2d(128, 128, kernel_size=(3, 3), stride=(1, 1), padding=(1, 1))
      (5): GroupNorm(128, 128, eps=1e-05, affine=True)
      (6): ReLU(inplace=True)
      (7): AvgPool2d(kernel_size=2, stride=2, padding=0)
      (8): Conv2d(128, 128, kernel_size=(3, 3), stride=(1, 1), padding=(1, 1))
      (9): GroupNorm(128, 128, eps=1e-05, affine=True)
      (10): ReLU(inplace=True)
      (11): AvgPool2d(kernel_size=2, stride=2, padding=0)
    )
    (classifier): Linear(in_features=128, out_features=31, bias=True)
  )
  (pool_layer): Sequential(
    (0): AdaptiveAvgPool2d(output_size=(1, 1))
    (1): Flatten(start_dim=1, end_dim=-1)
  )
  (bottleneck): Sequential(
    (0): Linear(in_features=128, out_features=256, bias=True)
    (1): BatchNorm1d(256, eps=1e-05, momentum=0.1, affine=True, track_running_stats=True)
    (2): ReLU()
  )
  (head): Linear(in_features=256, out_features=31, bias=True)
)
torch.Size([2, 3, 32, 32])
ImageClassifier(
  (backbone): ConvNet(
    (features): Sequential(
      (0): Conv2d(3, 128, kernel_size=(3, 3), stride=(1, 1), padding=(1, 1))
      (1): GroupNorm(128, 128, eps=1e-05, affine=True)
      (2): ReLU(inplace=True)
      (3): AvgPool2d(kernel_size=2, stride=2, padding=0)
      (4): Conv2d(128, 128, kernel_size=(3, 3), stride=(1, 1), padding=(1, 1))
      (5): GroupNorm(128, 128, eps=1e-05, affine=True)
      (6): ReLU(inplace=True)
      (7): AvgPool2d(kernel_size=2, stride=2, padding=0)
      (8): Conv2d(128, 128, kernel_size=(3, 3), stride=(1, 1), padding=(1, 1))
      (9): GroupNorm(128, 128, eps=1e-05, affine=True)
      (10): ReLU(inplace=True)
      (11): AvgPool2d(kernel_size=2, stride=2, padding=0)
    )
    (classifier): Linear(in_features=128, out_features=31, bias=True)
  )
  (pool_layer): Sequential(
    (0): AdaptiveAvgPool2d(output_size=(1, 1))
    (1): Flatten(start_dim=1, end_dim=-1)
  )
  (bottleneck): Sequential(
    (0): Linear(in_features=128, out_features=256, bias=True)
    (1): BatchNorm1d(256, eps=1e-05, momentum=0.1, affine=True, track_running_stats=True)
    (2): ReLU()
  )
  (head): Linear(in_features=256, out_features=31, bias=True)
)
torch.Size([2, 3, 32, 32])
ImageClassifier(
  (backbone): ConvNet(
    (features): Sequential(
      (0): Conv2d(3, 128, kernel_size=(3, 3), stride=(1, 1), padding=(1, 1))
      (1): GroupNorm(128, 128, eps=1e-05, affine=True)
      (2): ReLU(inplace=True)
      (3): AvgPool2d(kernel_size=2, stride=2, padding=0)
      (4): Conv2d(128, 128, kernel_size=(3, 3), stride=(1, 1), padding=(1, 1))
      (5): GroupNorm(128, 128, eps=1e-05, affine=True)
      (6): ReLU(inplace=True)
      (7): AvgPool2d(kernel_size=2, stride=2, padding=0)
      (8): Conv2d(128, 128, kernel_size=(3, 3), stride=(1, 1), padding=(1, 1))
      (9): GroupNorm(128, 128, eps=1e-05, affine=True)
      (10): ReLU(inplace=True)
      (11): AvgPool2d(kernel_size=2, stride=2, padding=0)
    )
    (classifier): Linear(in_features=128, out_features=31, bias=True)
  )
  (pool_layer): Sequential(
    (0): AdaptiveAvgPool2d(output_size=(1, 1))
    (1): Flatten(start_dim=1, end_dim=-1)
  )
  (bottleneck): Sequential(
    (0): Linear(in_features=128, out_features=256, bias=True)
    (1): BatchNorm1d(256, eps=1e-05, momentum=0.1, affine=True, track_running_stats=True)
    (2): ReLU()
  )
  (head): Linear(in_features=256, out_features=31, bias=True)
)
torch.Size([2, 3, 32, 32])
ImageClassifier(
  (backbone): ConvNet(
    (features): Sequential(
      (0): Conv2d(3, 128, kernel_size=(3, 3), stride=(1, 1), padding=(1, 1))
      (1): GroupNorm(128, 128, eps=1e-05, affine=True)
      (2): ReLU(inplace=True)
      (3): AvgPool2d(kernel_size=2, stride=2, padding=0)
      (4): Conv2d(128, 128, kernel_size=(3, 3), stride=(1, 1), padding=(1, 1))
      (5): GroupNorm(128, 128, eps=1e-05, affine=True)
      (6): ReLU(inplace=True)
      (7): AvgPool2d(kernel_size=2, stride=2, padding=0)
      (8): Conv2d(128, 128, kernel_size=(3, 3), stride=(1, 1), padding=(1, 1))
      (9): GroupNorm(128, 128, eps=1e-05, affine=True)
      (10): ReLU(inplace=True)
      (11): AvgPool2d(kernel_size=2, stride=2, padding=0)
    )
    (classifier): Linear(in_features=128, out_features=31, bias=True)
  )
  (pool_layer): Sequential(
    (0): AdaptiveAvgPool2d(output_size=(1, 1))
    (1): Flatten(start_dim=1, end_dim=-1)
  )
  (bottleneck): Sequential(
    (0): Linear(in_features=128, out_features=256, bias=True)
    (1): BatchNorm1d(256, eps=1e-05, momentum=0.1, affine=True, track_running_stats=True)
    (2): ReLU()
  )
  (head): Linear(in_features=256, out_features=31, bias=True)
)
torch.Size([2, 3, 32, 32])
ImageClassifier(
  (backbone): ConvNet(
    (features): Sequential(
      (0): Conv2d(3, 128, kernel_size=(3, 3), stride=(1, 1), padding=(1, 1))
      (1): GroupNorm(128, 128, eps=1e-05, affine=True)
      (2): ReLU(inplace=True)
      (3): AvgPool2d(kernel_size=2, stride=2, padding=0)
      (4): Conv2d(128, 128, kernel_size=(3, 3), stride=(1, 1), padding=(1, 1))
      (5): GroupNorm(128, 128, eps=1e-05, affine=True)
      (6): ReLU(inplace=True)
      (7): AvgPool2d(kernel_size=2, stride=2, padding=0)
      (8): Conv2d(128, 128, kernel_size=(3, 3), stride=(1, 1), padding=(1, 1))
      (9): GroupNorm(128, 128, eps=1e-05, affine=True)
      (10): ReLU(inplace=True)
      (11): AvgPool2d(kernel_size=2, stride=2, padding=0)
    )
    (classifier): Linear(in_features=128, out_features=31, bias=True)
  )
  (pool_layer): Sequential(
    (0): AdaptiveAvgPool2d(output_size=(1, 1))
    (1): Flatten(start_dim=1, end_dim=-1)
  )
  (bottleneck): Sequential(
    (0): Linear(in_features=128, out_features=256, bias=True)
    (1): BatchNorm1d(256, eps=1e-05, momentum=0.1, affine=True, track_running_stats=True)
    (2): ReLU()
  )
  (head): Linear(in_features=256, out_features=31, bias=True)
)
torch.Size([2, 3, 32, 32])
ImageClassifier(
  (backbone): ConvNet(
    (features): Sequential(
      (0): Conv2d(3, 128, kernel_size=(3, 3), stride=(1, 1), padding=(1, 1))
      (1): GroupNorm(128, 128, eps=1e-05, affine=True)
      (2): ReLU(inplace=True)
      (3): AvgPool2d(kernel_size=2, stride=2, padding=0)
      (4): Conv2d(128, 128, kernel_size=(3, 3), stride=(1, 1), padding=(1, 1))
      (5): GroupNorm(128, 128, eps=1e-05, affine=True)
      (6): ReLU(inplace=True)
      (7): AvgPool2d(kernel_size=2, stride=2, padding=0)
      (8): Conv2d(128, 128, kernel_size=(3, 3), stride=(1, 1), padding=(1, 1))
      (9): GroupNorm(128, 128, eps=1e-05, affine=True)
      (10): ReLU(inplace=True)
      (11): AvgPool2d(kernel_size=2, stride=2, padding=0)
    )
    (classifier): Linear(in_features=128, out_features=31, bias=True)
  )
  (pool_layer): Sequential(
    (0): AdaptiveAvgPool2d(output_size=(1, 1))
    (1): Flatten(start_dim=1, end_dim=-1)
  )
  (bottleneck): Sequential(
    (0): Linear(in_features=128, out_features=256, bias=True)
    (1): BatchNorm1d(256, eps=1e-05, momentum=0.1, affine=True, track_running_stats=True)
    (2): ReLU()
  )
  (head): Linear(in_features=256, out_features=31, bias=True)
)
torch.Size([2, 3, 32, 32])
ImageClassifier(
  (backbone): ConvNet(
    (features): Sequential(
      (0): Conv2d(3, 128, kernel_size=(3, 3), stride=(1, 1), padding=(1, 1))
      (1): GroupNorm(128, 128, eps=1e-05, affine=True)
      (2): ReLU(inplace=True)
      (3): AvgPool2d(kernel_size=2, stride=2, padding=0)
      (4): Conv2d(128, 128, kernel_size=(3, 3), stride=(1, 1), padding=(1, 1))
      (5): GroupNorm(128, 128, eps=1e-05, affine=True)
      (6): ReLU(inplace=True)
      (7): AvgPool2d(kernel_size=2, stride=2, padding=0)
      (8): Conv2d(128, 128, kernel_size=(3, 3), stride=(1, 1), padding=(1, 1))
      (9): GroupNorm(128, 128, eps=1e-05, affine=True)
      (10): ReLU(inplace=True)
      (11): AvgPool2d(kernel_size=2, stride=2, padding=0)
    )
    (classifier): Linear(in_features=128, out_features=31, bias=True)
  )
  (pool_layer): Sequential(
    (0): AdaptiveAvgPool2d(output_size=(1, 1))
    (1): Flatten(start_dim=1, end_dim=-1)
  )
  (bottleneck): Sequential(
    (0): Linear(in_features=128, out_features=256, bias=True)
    (1): BatchNorm1d(256, eps=1e-05, momentum=0.1, affine=True, track_running_stats=True)
    (2): ReLU()
  )
  (head): Linear(in_features=256, out_features=31, bias=True)
)
torch.Size([2, 3, 32, 32])
ImageClassifier(
  (backbone): ConvNet(
    (features): Sequential(
      (0): Conv2d(3, 128, kernel_size=(3, 3), stride=(1, 1), padding=(1, 1))
      (1): GroupNorm(128, 128, eps=1e-05, affine=True)
      (2): ReLU(inplace=True)
      (3): AvgPool2d(kernel_size=2, stride=2, padding=0)
      (4): Conv2d(128, 128, kernel_size=(3, 3), stride=(1, 1), padding=(1, 1))
      (5): GroupNorm(128, 128, eps=1e-05, affine=True)
      (6): ReLU(inplace=True)
      (7): AvgPool2d(kernel_size=2, stride=2, padding=0)
      (8): Conv2d(128, 128, kernel_size=(3, 3), stride=(1, 1), padding=(1, 1))
      (9): GroupNorm(128, 128, eps=1e-05, affine=True)
      (10): ReLU(inplace=True)
      (11): AvgPool2d(kernel_size=2, stride=2, padding=0)
    )
    (classifier): Linear(in_features=128, out_features=31, bias=True)
  )
  (pool_layer): Sequential(
    (0): AdaptiveAvgPool2d(output_size=(1, 1))
    (1): Flatten(start_dim=1, end_dim=-1)
  )
  (bottleneck): Sequential(
    (0): Linear(in_features=128, out_features=256, bias=True)
    (1): BatchNorm1d(256, eps=1e-05, momentum=0.1, affine=True, track_running_stats=True)
    (2): ReLU()
  )
  (head): Linear(in_features=256, out_features=31, bias=True)
)
torch.Size([2, 3, 32, 32])
ImageClassifier(
  (backbone): ConvNet(
    (features): Sequential(
      (0): Conv2d(3, 128, kernel_size=(3, 3), stride=(1, 1), padding=(1, 1))
      (1): GroupNorm(128, 128, eps=1e-05, affine=True)
      (2): ReLU(inplace=True)
      (3): AvgPool2d(kernel_size=2, stride=2, padding=0)
      (4): Conv2d(128, 128, kernel_size=(3, 3), stride=(1, 1), padding=(1, 1))
      (5): GroupNorm(128, 128, eps=1e-05, affine=True)
      (6): ReLU(inplace=True)
      (7): AvgPool2d(kernel_size=2, stride=2, padding=0)
      (8): Conv2d(128, 128, kernel_size=(3, 3), stride=(1, 1), padding=(1, 1))
      (9): GroupNorm(128, 128, eps=1e-05, affine=True)
      (10): ReLU(inplace=True)
      (11): AvgPool2d(kernel_size=2, stride=2, padding=0)
    )
    (classifier): Linear(in_features=128, out_features=31, bias=True)
  )
  (pool_layer): Sequential(
    (0): AdaptiveAvgPool2d(output_size=(1, 1))
    (1): Flatten(start_dim=1, end_dim=-1)
  )
  (bottleneck): Sequential(
    (0): Linear(in_features=128, out_features=256, bias=True)
    (1): BatchNorm1d(256, eps=1e-05, momentum=0.1, affine=True, track_running_stats=True)
    (2): ReLU()
  )
  (head): Linear(in_features=256, out_features=31, bias=True)
)
torch.Size([2, 3, 32, 32])
ImageClassifier(
  (backbone): ConvNet(
    (features): Sequential(
      (0): Conv2d(3, 128, kernel_size=(3, 3), stride=(1, 1), padding=(1, 1))
      (1): GroupNorm(128, 128, eps=1e-05, affine=True)
      (2): ReLU(inplace=True)
      (3): AvgPool2d(kernel_size=2, stride=2, padding=0)
      (4): Conv2d(128, 128, kernel_size=(3, 3), stride=(1, 1), padding=(1, 1))
      (5): GroupNorm(128, 128, eps=1e-05, affine=True)
      (6): ReLU(inplace=True)
      (7): AvgPool2d(kernel_size=2, stride=2, padding=0)
      (8): Conv2d(128, 128, kernel_size=(3, 3), stride=(1, 1), padding=(1, 1))
      (9): GroupNorm(128, 128, eps=1e-05, affine=True)
      (10): ReLU(inplace=True)
      (11): AvgPool2d(kernel_size=2, stride=2, padding=0)
    )
    (classifier): Linear(in_features=128, out_features=31, bias=True)
  )
  (pool_layer): Sequential(
    (0): AdaptiveAvgPool2d(output_size=(1, 1))
    (1): Flatten(start_dim=1, end_dim=-1)
  )
  (bottleneck): Sequential(
    (0): Linear(in_features=128, out_features=256, bias=True)
    (1): BatchNorm1d(256, eps=1e-05, momentum=0.1, affine=True, track_running_stats=True)
    (2): ReLU()
  )
  (head): Linear(in_features=256, out_features=31, bias=True)
)
torch.Size([2, 3, 32, 32])
ImageClassifier(
  (backbone): ConvNet(
    (features): Sequential(
      (0): Conv2d(3, 128, kernel_size=(3, 3), stride=(1, 1), padding=(1, 1))
      (1): GroupNorm(128, 128, eps=1e-05, affine=True)
      (2): ReLU(inplace=True)
      (3): AvgPool2d(kernel_size=2, stride=2, padding=0)
      (4): Conv2d(128, 128, kernel_size=(3, 3), stride=(1, 1), padding=(1, 1))
      (5): GroupNorm(128, 128, eps=1e-05, affine=True)
      (6): ReLU(inplace=True)
      (7): AvgPool2d(kernel_size=2, stride=2, padding=0)
      (8): Conv2d(128, 128, kernel_size=(3, 3), stride=(1, 1), padding=(1, 1))
      (9): GroupNorm(128, 128, eps=1e-05, affine=True)
      (10): ReLU(inplace=True)
      (11): AvgPool2d(kernel_size=2, stride=2, padding=0)
    )
    (classifier): Linear(in_features=128, out_features=31, bias=True)
  )
  (pool_layer): Sequential(
    (0): AdaptiveAvgPool2d(output_size=(1, 1))
    (1): Flatten(start_dim=1, end_dim=-1)
  )
  (bottleneck): Sequential(
    (0): Linear(in_features=128, out_features=256, bias=True)
    (1): BatchNorm1d(256, eps=1e-05, momentum=0.1, affine=True, track_running_stats=True)
    (2): ReLU()
  )
  (head): Linear(in_features=256, out_features=31, bias=True)
)
Traceback (most recent call last):
  File "/home/daniel/exjobb/Transfer-Learning-Library/examples/domain_adaptation/image_classification/dann.py", line 319, in <module>
    main(args)
  File "/home/daniel/exjobb/Transfer-Learning-Library/examples/domain_adaptation/image_classification/dann.py", line 157, in main
    train(train_source_iter, train_target_iter, classifier, domain_adv, optimizer,
…
